saved_models/model2.pth (torch, 14818 bytes, 11 tensors)

fc1.weight f4 [25, 2]
00000000: e653 debe 6524 1fbf ae37 3a3f 3dab 0c3f
00000010: cf5f dd3d 133e 30bf 923a 30bf f5d6 1cbf
00000020: 34ab 1dbf 7561 edbe 4253 03bf 6155 08bf
00000030: ede2 153f a11d 3b3f ac96 bf3e 4bc4 ebbe
00000040: ddd0 36bf 588c 5e3e a45e e3be d5aa bbbe
00000050: 9b7e 103f 1056 ffbd 73ce 02bf 069a 1bbe
00000060: a682 f33e 8dee 2e3f 5683 ff3e 9a4e 133f
00000070: 927c a8be 4883 3b3e 11a7 cbbe 5b70 1bbf
00000080: 7d40 db3e a377 30bf ba5e 11bf 98a2 04be
00000090: f6a0 22bf c2da d8be a42b 033f a643 193e
000000a0: 9e89 62bd d1b7 d6be 90b7 623e ba15 9d3e
000000b0: 8c73 253f 59e2 a43e 90b4 113e d988 823e
000000c0: 9d0c 97bd 7bb0 1dbf
-0.43423384 -0.6216491 0.7274121 0.5494879 0.1080929 -0.6884472 -0.6883937 -0.612655
-0.6158936 -0.46363416 -0.51298916 -0.5325528 0.58549386 0.73092085 0.3741964 -0.46048197
-0.7141245 0.21733224 -0.44408143 -0.36653772 0.56443185 -0.12467587 -0.51096267 -0.15195474
0.47560614 0.6833275 0.4990489 0.5754181 -0.3290754 0.18311799 -0.397759 -0.60718316
0.42822638 -0.6893255 -0.56785166 -0.1295265 -0.63526857 -0.423544 0.51238465 0.14967212
-0.055307023 -0.41937116 0.22140336 0.3068064 0.64629436 0.3220394 0.14229035 0.2549503
-0.07375453 -0.6159741

fc1.bias f4 [25]
00000000: 1736 4c3c 092d 17bf 6788 3e3f 187d 9abe
00000010: 8d5c 6f3f 4f2a a23f fd1d b23e c19e 7ebe
00000020: 0251 f3bd f39c 97bf 072d a9be c04d 47bf
00000030: e5c9 813f 6b06 10bf 2f24 b6be f816 7cbe
00000040: 4663 f13e c94b dfbe efe7 643f f657 223e
00000050: e19e 93bf 770f 4b3f c107 47bf 1d38 72bf
00000060: 2a8e 1b3f
0.012464068 -0.59053093 0.74426883 -0.30173564 0.93500596 1.2669162 0.34788504 -0.24865247
-0.118806854 -1.1844772 -0.33042166 -0.7785301 1.0139738 -0.56259793 -0.3557448 -0.24618137
0.47146052 -0.43612507 0.894164 0.15853867 -1.1532861 0.7932047 -0.77746207 -0.9461687
0.607638

fc2.weight f4 [25, 25]
00000000: 484f ea3c 5b56 d3bc 39c5 123e a780 a23d
00000010: b2c3 a03d 46bb 2b3e 04a9 3bbe 82b3 0abd
00000020: a83f 23bd c2d3 9abe c2d5 8a3d f001 d73d
00000030: 946e 7dbd 12c2 acbc ad51 06be 63b5 88bd
00000040: ea7f b3ba f161 8cbd 4a57 83bd 9ddb a33d
00000050: a0ed 97be c84e 6a3e fc16 2abe 137f 22be
00000060: 426b ab3d a2fa 3abe 00d4 5fb9 299d ec3d
00000070: 9cf3 133d b1f9 1d3c 72cc e2ba 6e01 083e
00000080: 5e02 10bd 38d0 88be 1fda 813e eab7 ff3d
00000090: acf2 053e 2271 d7bd 7007 d3bd 779c 4bbd
000000a0: 78a1 a33d f1b8 95bc c6e9 84be 0d14 a93d
000000b0: 3d29 1c3d d7df d8bb 0c74 9b3c 2dd0 dfbc
000000c0: 7a2f f43e aced bf3d 3a97 ef3d 6381 7c3e
000000d0: 6b4d b9bd 284b b4bc a810 b13d 30e5 093d
000000e0: 408a 853d f108 fe3d faa0 863d 5ed6 363e
000000f0: dd22 103e 6c96 4abe cfb1 81be 5969 c43b
00000100: a71d 023e 2196 46be d005 b33d 93ee 8fbe
00000110: 6a25 64bd 39be 193e 9e6b 393d b322 debd
00000120: 2df2 593e 654d 143f 496d dc3d 9b91 2e3e
00000130: ab06 143d 5e2c 413c 7468 f23d b150 183e
00000140: bc37 acbc 05db 673e 4877 a33c 67d8 3fbe
00000150: 2961 743e 175f 34bc 5529 82bd a571 8dbd
00000160: 667f 463e dabe c03c 234d 02be cdbb 0e3d
00000170: 053d 02be 7d6d bd3d e191 51bc 0bcf 8b3e
00000180: 05dc e3bd c307 2d3e 3169 a7bd 3fa6 3fbe
00000190: 80b1 b9bd 4d85 5a3c 9d5a db3d fa93 33be
000001a0: b70b ad3d 9a83 42be c204 06be 6dac 5b3d
000001b0: 9de2 b43d 707f bfbd a043 0bbe 8acc 34be
000001c0: 4b43 45be dd0e bf3d 3792 a43d 40eb fc3d
000001d0: cad2 40be a01b a8bd bd4b 22be c0d8 96bd
000001e0: ca76 afbd cbfe 0cbe 0ac6 873d 4da8 92bd
000001f0: edfb 61bd 326e 383e 0223 593d b53a dbbd
00000200: da8a 5b3d 1074 273e d0a3 5d3e be34 2d3e
00000210: 0a48 81bc 4e00 68bd c536 273d f54e 03bd
00000220: c655 b2bc b58e 1e3d 1487 603e 3011 6c3e
00000230: fe53 523c 49a5 5abe 69b9 8bbd 8e18 bf3d
00000240: 5c2e 67be bf7a 833e 6895 81bd 7e15 3f3d
00000250: 73fa 033f a7c5 033e 08a6 cf3c 5608 de3c
00000260: e7d3 133d de94 813c 5042 d6bb affe 9d3c
00000270: 2ebc 2fbe 3f6d fb3d abba 1bbd 0484 3cbe
00000280: 4ea6 6f3e e5ac e63b a659 6cbd 3a77 243d
00000290: fa97 31bb 97b2 283e 7678 643e 326d c43d
000002a0: de16 55bd 0756 a6bd c530 0e3e 6100 f5bd
000002b0: dd75 3bbe fb55 3dbf 1542 373e 72cc 823e
000002c0: 9935 ce3d e75e 34be 18aa 573e 52c2 af3d
000002d0: 1396 333e 4091 6e3d 8e3e 0dbe 8a29 033e
000002e0: d2b1 803e 39d0 febd 36fc 633d 59ee d53c
000002f0: cfb2 f4bc 5663 bb3d 0c1d 983d 98f2 603c
00000300: 403c 4a3e 9118 44bc 1985 85be d0ef 8d3e
00000310: d2f2 fbbc a474 3e3e ee0a b33e 9e1c 813c
00000320: 9a71 7fbc 2302 3ebe 4da8 5abc 53f7 183c
00000330: 70bf 30be eb7d 013d df1e 1bbe 479a dcbd
00000340: 9063 9a3d e3e3 ea3c e76f 653d b8b9 1c3d
00000350: d8f5 35be 4d5e 163e 72b0 fbbc a034 02be
00000360: 2749 db3d e3b3 023e 76c6 28be 7aca 95bd
00000370: 002c d53d 70e9 f2bd 1a41 aabc 0f21 3fbe
00000380: b373 e9bd e35d 2dbe 6bd6 29be 9099 db3d
00000390: 8828 3dbd fda1 ea3d 7a0a 9c3e 7179 123e
000003a0: d4ff 2dbe 2165 a93c bc93 65be bfe9 b0bd
000003b0: 245f 603d 5bc0 853d e268 2b3d 5b0b 97bd
000003c0: 384b 29be 80dd d63c fb05 d1bd 1b7c 67bd
000003d0: 1a07 353e c405 abbe e641 733c f4b4 0bbe
000003e0: 1bf4 bdbe a918 fa3d 340d 2dbe 7bf0 28bd
000003f0: 0297 fabd 2f2a 803c bde0 283d 4931 8e3e
0.028602257 -0.025798013 0.14333047 0.07934695 0.07849826 0.16770658 -0.18326193 -0.0338626
-0.03985563 -0.30239683 0.06779052 0.104984164 -0.061873034 -0.021088634 -0.13117094 -0.06675222
-0.0013694738 -0.06854618 -0.064131334 0.08000872 -0.2967348 0.22881615 -0.1661033 -0.15868787
0.08370067 -0.18259671 -0.00021345913 0.115534134 0.036120996 0.009642051 -0.0017303361 0.13281795
-0.035158508 -0.26721358 0.25361726 0.12486251 0.13080853 -0.10519625 -0.10304153 -0.049709763
0.07989782 -0.018276663 -0.25959605 0.082557775 0.038125265 -0.0066184807 0.018976234 -0.027320946
0.47692472 0.09371504 0.11698766 0.24658732 -0.090479694 -0.022008494 0.08645755 0.033665836
0.0652051 0.12404049 0.065736726 0.17855212 0.140758 -0.19783944 -0.2533097 0.0059940037
0.12706624 -0.19393207 0.08741343 -0.28111705 -0.055699743 0.1501397 0.045268647 -0.10846462
0.21283789 0.57930595 0.10763032 0.17047732 0.03613917 0.011790363 0.11836329 0.14874531
-0.02102267 0.22642143 0.019954339 -0.18734895 0.23865189 -0.011008999 -0.0635554 -0.069064416
0.19384536 0.023528505 -0.12724738 0.03484707 -0.1271859 0.09249399 -0.012791128 0.273064
-0.1112595 0.16897492 -0.081743605 -0.18715762 -0.090670586 0.013337445 0.107106425 -0.17536917
0.084495 -0.18995515 -0.13087752 0.053631235 0.088322856 -0.09350479 -0.13600016 -0.1765615
-0.19263951 0.09329007 0.08035701 0.12349558 -0.1883041 -0.08208394 -0.15849204 -0.073655605
-0.08567579 -0.13769071 0.0662957 -0.07161007 -0.055171896 0.18010786 0.0530119 -0.10704557
0.053599216 0.16352868 0.21644521 0.16914651 -0.015781421 -0.056640916 0.040823717 -0.03205772
-0.021769416 0.038710315 0.21926528 0.23053432 0.012837408 -0.21352114 -0.068224736 0.09330855
-0.22576278 0.25679585 -0.06327325 0.046651356 0.5155403 0.12868367 0.025347725 0.027103584
0.036090758 0.015818056 -0.006538667 0.019286482 -0.17161629 0.122766964 -0.038019817 -0.18409735
0.23403284 0.0070396536 -0.057702683 0.040152766 -0.0027098642 0.16474377 0.22311577 0.0959114
-0.05202376 -0.08121877 0.13885792 -0.11962963 -0.1830668 -0.7395932 0.17896302 0.25546604
0.10068817 -0.17614327 0.2106098 0.085819855 0.17537718 0.05824399 -0.13793394 0.12808815
0.25135666 -0.12442059 0.05566045 0.02611463 -0.029870419 0.09149806 0.07427415 0.013729714
0.19749546 -0.011968748 -0.26078108 0.27722025 -0.030755434 0.18599182 0.34969276 0.015760716
-0.01559105 -0.18555503 -0.01334579 0.00933631 -0.17260528 0.031614225 -0.15148495 -0.107716136
0.07538521 0.028673118 0.05601492 0.038263053 -0.17769563 0.1468441 -0.030723784 -0.12715387
0.10707312 0.12763934 -0.16481957 -0.0731401 0.10408783 -0.11860931 -0.020782996 -0.18664955
-0.11399021 -0.16930346 -0.165857 0.10722649 -0.04618123 0.11456678 0.30476743 0.14304139
-0.16992122 0.020678105 -0.22419637 -0.086383335 0.054778233 0.065308295 0.04184807 -0.07375213
-0.165326 0.026228666 -0.10206219 -0.05651484 0.1767849 -0.33402836 0.014847254 -0.13643247
-0.371003 0.12211735 -0.16899568 -0.041244965 -0.12235834 0.015645115 0.041229952 0.27771977

fc2.bias f4 [25]
00000000: 7600 1a3f 050a c1be b073 1abf b679 70be
00000010: 9ae1 db3a 1d9f b1be 6aac bb3d 3943 edbe
00000020: 2737 26be 3e10 833f ffaf 513f b718 1fbe
00000030: 47ca 6ebe da67 c2bd f944 643e 6ec8 11be
00000040: dd39 edbe b25b 92bd 495d a93d 9090 243f
00000050: e65e febe 002e 00be 4fb8 42bd 763c 663e
00000060: dc1c 9d3e
0.60156953 -0.37702957 -0.60332775 -0.23483929 0.0016775609 -0.34691706 0.09163745 -0.4634035
-0.16231976 1.0239332 0.81909174 -0.15536772 -0.2331935 -0.09492464 0.22291936 -0.14236614
-0.4633321 -0.07146396 0.08269746 0.64283085 -0.49681777 -0.12517548 -0.04753905 0.22484002
0.3068608

fc3.weight f4 [25, 25]
00000000: 5007 653d 4260 2cbe 4b2f 47be ceae f23b
00000010: 7328 483d 0399 2ebc 4c68 68be 89cd 44bd
00000020: cdf5 c43b 4053 413e 7aac 9cbe 7285 8f3d
00000030: 4cda 1fbd 5022 28be ce69 193c d941 8c3c
00000040: c505 27be a93e 853e af53 01be f8f0 72bd
00000050: 37f9 4abc d4d7 4b3e b278 4cbe e023 45be
00000060: b7a3 38bb 1f7e 52bc 5195 32be a706 4cbe
00000070: dc6e 7f3d 5ae7 26bd e6ac 85bd 5908 533d
00000080: 647e 85be 7be6 15be 9b12 db3e f562 053f
00000090: bb67 b8bd 1bfb 423d b25a 083d ea56 c13d
000000a0: c11f 20bd 5569 c9bd 4822 30be f86c fa3d
000000b0: 7215 8c3e 9ea5 93be 3105 053e 76e2 303d
000000c0: b0fb 1dbe d5e7 8e3d 4c94 ae3c 5475 fa3b
000000d0: 0c55 5fbe b233 44be 87b4 1d3e 6960 a6be
000000e0: 2b74 48be 7219 ffbd cff6 acbd dcb4 913e
000000f0: 9ef8 f13d a9ae 95bd 8b08 3bbd 78f8 a9bd
00000100: f2d5 173e a14b 75bd 2cea e5bc 4bbe 813d
00000110: 1107 42be a98e 723d fcb1 163e 78f1 933d
00000120: 473d 1a3e 8c78 30be 16d0 d43d 9b42 e83c
00000130: 5be2 993d 1066 93be 4600 333e 1bec 4b3e
00000140: fb60 dabd 02fc a93d a95d 053d 2a88 48be
00000150: 682b df3e 5809 983e 9813 82be ec7c 553d
00000160: 6006 1bbe ee2c e33d 8ce8 1bbe 4c6e 8cbd
00000170: 0f7c e6b9 8147 16be 0259 5c3d 36c1 163e
00000180: 9aa6 e6bd 71e9 a4bd 35c2 483e 6f5b 3bbe
00000190: 6c67 a43d f65d 8d3d 630b 413c 6dea b4bc
000001a0: 23b4 3d3e 10d3 7dbc bed2 fd3c 928e 46be
000001b0: 9719 a4bd 3dd1 173f 3692 8e3e 6bcb 663d
000001c0: 1b08 d13d 9a61 f3ba d8e9 163e d11c 2dbe
000001d0: 18b2 5f3d 6dd8 f2bd ebb8 24be f28e d43d
000001e0: 4098 18bd e131 cebd 4df8 82be b36e 253e
000001f0: f888 153e 7cfc d53c e9cf 2a3e ee8b 773d
00000200: 8436 2cbe 7a43 41be c788 5cbd d191 1b3e
00000210: 83e3 f0bd a344 cf3d 34a6 63bd eb53 02be
00000220: 792c 32be 4035 56bd 5a56 84bd c4c3 3dbe
00000230: 9512 40be fa5d c9bd 186d 8f3d 4d27 59bd
00000240: 0b1a 0abe cfad 183e bcf9 123d 1073 2fbe
00000250: 5c3d 2abe 5775 9dbd 615d aa3d 2ee9 303d
00000260: 03a0 093c 3018 4cbe 9a96 ac3c f124 0ebe
00000270: bab7 03be 7d89 243e 974c 173e a4de 0ebd
00000280: fa6a 91bb 0251 00bd 81ad e33d 9bc4 26be
00000290: d7fc b43d 0b23 17be 53e3 f83d d5b7 46be
000002a0: 3073 abbc b2b3 0f3e b939 b6bd a62b b2bd
000002b0: 8f0d 92bd 7acb e8bd 7efb b03d 1b48 88bd
000002c0: e435 a1bd 54b2 dabd b837 33bd 3a77 493d
000002d0: c2d2 14be 2829 0b3e aadd 1c3e 9a19 a0ba
000002e0: d414 a73d ad40 b8bd 9e6b eabc e775 22be
000002f0: 33f1 23bd 4236 76bd efde babd a73c 043e
00000300: e4f0 033c 8714 10be 07ab 0fbd e68c 09be
00000310: 21a6 0fbc 620c 0f3e 7f2a a7bd f6d8 0d3e
00000320: a2b4 2fbd 1148 b23d cd62 cebd 5cb0 d7bd
00000330: b037 a3bd 96fd 9fbe 9471 4d3e 5b40 99be
00000340: 985a 48be c845 84be c865 bfbe 2e17 f43d
00000350: a9bf 9cbe 0260 42be ecea 383d f8bf f93c
00000360: f8c6 b2bd c666 4f3d 2499 483e da86 aebe
00000370: 0bf3 85bd 35a0 b6be 9751 2b3d 1f67 05be
00000380: 763f 023e bfcf 623e ce46 efbb fbf0 abbe
00000390: 7d51 11bc 9a7a cc3c b59f 26be 9043 893c
000003a0: 76d9 84be aa83 b4bd ad84 0a3f b1f7 273f
000003b0: 19c4 523d 0a7c 14be 988f fe3d f217 293e
000003c0: 73c6 7dbe e9a2 1bbe 2cda a83d 930a 49bd
000003d0: d2d8 363e 307e 563d 126e b53d 66eb 703e
000003e0: 46ed f1bd 97c9 de3d 1034 16be 9abc 89bd
000003f0: d50e 1dbe 6f80 1f3d 00b8 9fba 21b4 49be
0.055915177 -0.16833594 -0.19451635 0.0074060922 0.0488667 -0.010656598 -0.22696036 -0.048047576
0.006010747 0.18879414 -0.3060034 0.070078745 -0.039026543 -0.16419339 0.009363605 0.017121242
-0.16310795 0.26024368 -0.12629579 -0.059311837 -0.012388519 0.1990655 -0.19967917 -0.19251966
-0.0028173754 -0.012847452 -0.17439772 -0.19924413 0.062361583 -0.040747978 -0.065271184 0.051521633
-0.2607299 -0.14638703 0.42787632 0.5210412 -0.0900416 0.047602754 0.03328962 0.09440406
-0.039092783 -0.098345436 -0.17200577 0.122278154 0.2736011 -0.28837293 0.12990262 0.04318472
-0.15428042 0.06977812 0.021310948 0.007643381 -0.21809787 -0.19160345 0.15400897 -0.3249543
-0.19575565 -0.12456025 -0.084455125 0.28458297 0.11814998 -0.073087044 -0.045662444 -0.08299345
0.14827707 -0.05988658 -0.028065763 0.06335124 -0.18948008 0.059218083 0.14716333 0.07223791
0.15062438 -0.17233485 0.10391252 0.028352072 0.07513877 -0.28788805 0.17480573 0.19914286
-0.10663029 0.0830002 0.032560024 -0.19583192 0.43587804 0.2969463 -0.25405574 0.052121088
-0.1513915 0.11092554 -0.15225428 -0.06856975 -0.0004396145 -0.14675714 0.053795822 0.14722142
-0.112622455 -0.08052338 0.19605334 -0.18296598 0.08027539 0.06902687 0.0117825 -0.02208444
0.18525748 -0.015492216 0.030984279 -0.19390324 -0.080126934 0.5930365 0.27845925 0.05634634
0.10206624 -0.0018568516 0.14737642 -0.16905524 0.054613203 -0.11857686 -0.16086166 0.10378827
-0.037254572 -0.100681074 -0.25580063 0.1615551 0.1460303 0.02612137 0.16680874 0.06043618
-0.16817671 -0.18873397 -0.05384138 0.15192343 -0.117621444 0.10120513 -0.055578426 -0.12727325
-0.17399777 -0.052296877 -0.06461783 -0.1853171 -0.18757088 -0.09832378 0.0700323 -0.053015996
-0.13486497 0.14910053 0.035882697 -0.17133737 -0.16624969 -0.076883964 0.08318592 0.043191127
0.008399966 -0.19931102 0.021067906 -0.1388128 -0.12863055 0.16068073 0.1477531 -0.034880295
-0.0044378014 -0.031327255 0.111170776 -0.16285937 0.08837288 -0.14759462 0.12152734 -0.19406064
-0.02092895 0.14033392 -0.088977285 -0.086997315 -0.07131492 -0.11366935 0.08641718 -0.06654378
-0.07871607 -0.10678545 -0.04375431 0.04918597 -0.14533523 0.13589919 0.15318933 -0.0012214661
0.081582695 -0.08996711 -0.028615769 -0.15865289 -0.040024947 -0.060110338 -0.091245525 0.12913762
0.008053038 -0.1407033 -0.035075214 -0.13432655 -0.008767636 0.13969567 -0.08162402 0.13852295
-0.042896874 0.08705152 -0.100774385 -0.10531685 -0.07969606 -0.31248158 0.20062858 -0.29931912
-0.19565809 -0.2583449 -0.3738234 0.11918484 -0.30614975 -0.18981937 0.045145914 0.030487046
-0.087293565 0.05063512 0.19589669 -0.3408726 -0.065404974 -0.35669103 0.041825857 -0.13027619
0.12719521 0.22149561 -0.0073021417 -0.3358229 -0.008869526 0.024960805 -0.16271861 0.01675585
-0.2594716 -0.088141754 0.541087 0.6561232 0.051456545 -0.14500442 0.12429732 0.1651304
-0.24782734 -0.15198864 0.08244738 -0.04908235 0.17856148 0.052366436 0.08858885 0.23527297
-0.118128344 0.10878294 -0.14668298 -0.06725426 -0.15337689 0.038940843 -0.0012185574 -0.1969762

fc3.bias f4 [25]
00000000: 92f7 173c 93c7 143f 123a a13e f711 533e
00000010: 0629 313f 9f1e dfbd 53de bfbd 6d3b 84bd
00000020: ba8b 65bd 262e 393f 35f7 563c 655b 843e
00000030: 2f52 26be ed06 0cbd 2a56 d83d f17b 0c3f
00000040: 2965 993d 3c72 0abe fae7 393d 278f 93be
00000050: d710 0dbd b70d b8be 179c a23d 62b1 3bbe
00000060: fbc3 ddbe
0.009275334 0.58117026 0.31489617 0.20612322 0.6920322 -0.108945124 -0.09368577 -0.06456647
-0.056041457 0.7233604 0.013120462 0.25850978 -0.16242288 -0.034186292 0.105633095 0.5487662
0.07489998 -0.1352014 0.045387246 -0.28820154 -0.034439888 -0.35947964 0.07939928 -0.18329385
-0.43313584

fc4.weight f4 [25, 25]
00000000: dcf3 4c3e a0bd 493e 1373 4e3e 9cc5 0d3d
00000010: 493b 2c3e ca4a 2dbe 28c5 bdbd 2b02 d2bb
00000020: 0018 85bd 264e efbd e8f5 0c3e 94b9 98bd
00000030: 770e 443e a403 343d e135 eebd 4951 4dbf
00000040: f268 5f3d 32da 3bbe 0d26 b7bd 35af 633e
00000050: 762b 7e3c 8460 3a3e f778 9ebd dbdf 553e
00000060: b33d 6bbd d439 723b 7227 2c3e f489 5d3d
00000070: 7758 633d 82b9 33be 6370 f1bd 67c0 cfbd
00000080: fd65 f2bd b7d7 453d 42cb 56be ed86 2dbd
00000090: 3250 653c 623d 4d3d 5c12 2d3e 2c5c 05be
000000a0: 30e7 5e3d 4228 323e 86d7 dd3d 20aa 52bd
000000b0: f6d7 b9bd 68cc be3c 3c48 9ebd 15ae da3c
000000c0: 2a64 29be 8432 de3c eb16 fbbe f7f6 6dbe
000000d0: 11ac 883d d58d 2c3e ceda cabe 1a25 b0bd
000000e0: f580 bf3d 5f61 f03d 8672 ea3e b946 323e
000000f0: f974 333d a9cc d63c c0ad f83d ce35 e1bd
00000100: 04fe 11be 18d9 7ebe b2fd 4a3e 64ec 533e
00000110: 908d f9bd 7ea0 3dbe 8aa4 61be 0037 9a3e
00000120: 6eed e83d afd1 b53d a672 693d 2daa 8fbe
00000130: 04b0 be3e 9db1 f7bd f3c5 9c3d 87f4 623e
00000140: e084 233e 8c88 1bbe 756e f6bb 6202 9e3e
00000150: 167d 0c3f 5988 863d e376 2a3e 2dd9 8b3d
00000160: 4160 7fbe a5aa 3d3e aa66 863e b3e9 10bc
00000170: 926c dfbc a7a1 983d 5625 88be 023d 263e
00000180: 4e87 ae3d 354c 2e3e ff0e 643d bf10 cd3c
00000190: 1424 8bbd 7021 e43e 253c bf3e 0799 0b3f
000001a0: b0f6 5a3e fd9c a13d 8eab eabd 3925 d6bd
000001b0: d1f3 303e a000 0a3f a1fc 11be 0d26 96be
000001c0: 4321 2ebe cf17 193e 1161 12be 36f7 debe
000001d0: c5aa 1e3e e003 42be 1a55 e2bd 46af 983d
000001e0: b187 063e d16f 64be a7d1 93be 5f6a 71be
000001f0: a921 b6be bd3b 18be bbe3 b53d 98f8 48be
00000200: 8f72 343d 830e f4be 27fb e73d f288 46be
00000210: d4bd 1cbe 1b82 823e ddd8 9c3e 34f0 12be
00000220: f9dc b9bb 73d1 d3bd 2aa2 b6bd 08be 30be
00000230: adbe cc3c 7d11 f3bd 3dc0 c63d 4d97 833c
00000240: 230e edbc b84b 52be 85c2 043c b11d 5b3e
00000250: 4abe f4bd ab2e a13d 05d3 b23e a946 3bbe
00000260: e1a5 6f3b 33f6 bb3c 938d af3d 77fb 043e
00000270: 5951 0e3e 6395 38be d576 dabe 305a 38bf
00000280: 60d4 46be 8e93 8abd cce0 f2bd 1db5 f43e
00000290: 520d 663e 2517 d0be 7d65 d6bd 7e4f 893d
000002a0: da90 d83d 988e 9b3e 9c20 c43d 1ecd b0bd
000002b0: 1bdf 41be ce99 3f3e 046b 993e bb96 eebe
000002c0: 84c1 87be 32a6 81be 987e d13d 4b8d bdbe
000002d0: 716f 3dbe fd87 ab3d b15f 313d 49d1 7e3e
000002e0: 85cd d6be afb6 9b3d 1040 51bd da6d 3dbd
000002f0: d1db bdbd 87de 90bd 72a7 04be 3b6c 26be
00000300: 0685 543e 8d51 a73c 657b 3c3e d748 113d
00000310: d35b 453d 89a6 253d 3bf4 66bc a1a0 963e
00000320: 6236 513e c9f1 b0be 0117 96bc d92c 403e
00000330: c75e 40bd ac5f 763d a023 8a3d 1bfb 42be
00000340: c4d9 aabd b6a9 28bf 0a78 da3c 7cc5 803e
00000350: af52 133e 2774 e23e fb5f 903e 2c57 0abe
00000360: 8d63 68bd 7d5d e6bd 1ab7 c53c 7262 a13e
00000370: b421 d53d 5e7e e53d 29c0 d03d be00 063e
00000380: 38b9 a43d 5939 933e f3f4 5d3e 724a e43c
00000390: 92f4 23be be00 933d 5acd 93bd 2454 5c3d
000003a0: 44b6 03bd 16ff 3e3d a20f ffbe efe9 62bb
000003b0: 5ec4 a93d 76b8 203e 034f acbd 3d01 5e3e
000003c0: 3d3a fe3d d3b1 043e 30b2 8cbc b3e6 ed3c
000003d0: 412d 5c3e d6af abbd 90fd 513d 58de 3a3c
000003e0: bc54 38be d480 d63d 72e6 593e 0eff 873e
000003f0: 4785 7d3e 8409 a83d 0e0d 08bd 53d5 84bd
0.200149 0.19701242 0.20161085 0.034612283 0.1681949 -0.16923061 -0.0926612 -0.00640895
-0.06498718 -0.116848275 0.13765681 -0.07457271 0.19146143 0.043948784 -0.1163137 -0.80202156
0.054543443 -0.18344954 -0.089428045 0.22234805 0.015513292 0.1820088 -0.07737916 0.20886175
-0.057431888 0.0036960738 0.16811922 0.05408664 0.05550429 -0.17551234 -0.11789014 -0.1014412
-0.11835859 0.048301425 -0.20975974 -0.042365003 0.013996171 0.050107367 0.16901535 -0.13023442
0.054419696 0.1739817 0.108321235 -0.051431775 -0.090743944 0.023290828 -0.07728621 0.026694337
-0.16542116 0.027123697 -0.49040923 -0.23238741 0.06673444 0.1685098 -0.3962006 -0.086008266
0.093507685 0.11737322 0.457905 0.17409791 0.043812726 0.026220636 0.12142515 -0.109965906
-0.14257056 -0.24887502 0.1982334 0.20695645 -0.12185204 -0.18518254 -0.22035423 0.30120087
0.11373411 0.088778846 0.056994103 -0.2805952 0.37243664 -0.12094424 0.07654943 0.22163592
0.15968657 -0.15188807 -0.0075204917 0.30861193 0.54878366 0.06568975 0.16646914 0.06828532
-0.24939062 0.18522127 0.262502 -0.008844781 -0.02727345 0.07452708 -0.26590985 0.1623421
0.08521901 0.17021258 0.055678364 0.0250324 -0.06793991 0.4455676 0.37350574 0.54530376
0.21383166 0.07891271 -0.11458503 -0.104563184 0.17280509 0.53907204 -0.14256527 -0.29325905
-0.17004876 0.14950489 -0.1429484 -0.43547982 0.15494831 -0.1894679 -0.11051388 0.07455306
0.131377 -0.2230828 -0.2887089 -0.23575734 -0.35572556 -0.14866538 0.08881327 -0.19626081
0.044054564 -0.47667322 0.113272004 -0.19388178 -0.15306789 0.25489888 0.30634204 -0.14349443
-0.005672094 -0.10342684 -0.08917649 -0.17259991 0.024993265 -0.1186857 0.09704635 0.016063357
-0.028937405 -0.20536697 0.008103018 0.21398045 -0.11950357 0.07870229 0.3492662 -0.18288673
0.0036567377 0.022944545 0.08571925 0.12986551 0.13898219 -0.18025737 -0.42668787 -0.72012615
-0.19416952 -0.06766425 -0.11859283 0.47794428 0.22466019 -0.40642658 -0.10468576 0.06704615
0.10574503 0.30382228 0.09576532 -0.08632873 -0.18932764 0.18711016 0.2996446 -0.46599373
-0.26514828 -0.2532211 0.10229224 -0.3702186 -0.18499543 0.08375547 0.04330415 0.24884523
-0.41953674 0.076032035 -0.051086485 -0.04624734 -0.09270442 -0.07073694 -0.129545 -0.16252224
0.2075387 0.020424629 0.18406446 0.035469856 0.048183274 0.040442023 -0.014096315 0.29419425
0.20430902 -0.34559467 -0.018321516 0.18767108 -0.046965387 0.060149834 0.06745076 -0.19041102
-0.08342317 -0.6588396 0.026668567 0.2515067 0.1438701 0.44229242 0.28198227 -0.13509816
-0.056735564 -0.112483 0.024135161 0.3152042 0.10406819 0.11205743 0.10192902 0.1308622
0.0804314 0.2875469 0.21675472 0.02786753 -0.16011265 0.07177876 -0.07216902 0.05379118
-0.032156244 0.046629988 -0.49816614 -0.0034624299 0.08289407 0.15695366 -0.08413508 0.2168016
0.12413452 0.1295846 -0.01717481 0.02904067 0.21501638 -0.083831474 0.051267207 0.01140555
-0.18001074 0.10473791 0.21279314 0.2656178 0.24757873 0.0820494 -0.033215575 -0.06486001

fc4.bias f4 [25]
00000000: 8d02 943d 422f 06be 847a abbe 4bcf 6ebd
00000010: d382 8b3e 68a8 61be 692a c6be 9b4b f3be
00000020: e198 83be 4ee8 8d3e 9e3b 153e 57b1 3cbb
00000030: d0bd 5abe a788 113e be88 013d 1c2c 833e
00000040: 8714 183d 68c7 45be 0810 ac3d 66b6 8d3d
00000050: 3dd3 a33e b852 3a3f ffb2 af3d d811 383e
00000060: ad3d 1bbc
0.07227049 -0.13103965 -0.3349191 -0.05830316 0.27248248 -0.22036898 -0.3870423 -0.4751862
-0.25702575 0.27716297 0.14573523 -0.0028792226 -0.2136147 0.14212285 0.031624548 0.2561959
0.03712895 -0.19314349 0.08401495 0.06919555 0.319971 0.7278247 0.08579063 0.17975557
-0.009475154

fc5.weight f4 [25, 25]
00000000: 80b1 a6be 1942 043e 2c51 513e 6c55 9d3c
00000010: ce80 e0be 18df 283d 33bf 803e 45d9 f43e
00000020: a7a1 15bd 29e4 0d3e bd24 1cbe fbfd 733e
00000030: 8772 ab3d 57b2 103e 9945 a23d 7380 e83c
00000040: a136 0e3e e72f fabd aafe adbe fe3c f23d
00000050: fadf d63e 013c e6bd 611f 893e c40c 803e
00000060: 4100 883d dfa6 9e3e 102d e4bc 9e94 42be
00000070: b408 0b3e 61ea 44bf 7e85 c03d 8690 b8be
00000080: 0395 1ebe 318e eabe 050c 32bd 0d7f f33e
00000090: a144 253f a36d 02bf f003 a2be 2012 89be
000000a0: 9ffc 513e a1c3 833e 21f5 f6bd dca0 e33e
000000b0: d0a4 e23e 3e95 0b3f d3ef d03d e058 f93d
000000c0: 32ed 923c 0314 bb3e f184 273e adac c1bd
000000d0: 1f90 ce3e b69e b83e 5032 50bf 0225 fe3d
000000e0: cde5 d43d 794a 433f 96b1 18be ac7f 1bbd
000000f0: 6c9a b83e 0a32 b33e f797 54be a026 453e
00000100: 6471 9c3d 08c9 e03d 7bb1 b23e 1056 173c
00000110: 77cf 76bd ff7f 8f3e 4f8a ed3e 195b 3ebe
00000120: 5e74 5a3d 778e 273e 68b5 433e 0846 03bd
00000130: b1e8 27be d897 b7bd 4a3f 1e3e 77ee 00bf
00000140: bd6d ac3d 885c 67be 01a4 a53e 910b 36be
00000150: bee5 7abd 2cbf bd3d edb4 893d f494 a8be
00000160: 7893 e3bd ea65 9b3e 9080 563e 1e2e 5b3e
00000170: 2dab d3bd 144e 32be e74e 563e b7df eb3e
00000180: 9b99 853e ddfc 773c dd5a 6dbe bdf9 9fbd
00000190: 898e eb3d d920 13be 7ae6 963e 2d22 63be
000001a0: 4373 893f 3f73 fdbe a647 3f3f df0f afbe
000001b0: 7676 013f a7b0 843d dc16 bfbd d7e6 193e
000001c0: 65bc 273f e66d bfbe 135e ab3d 7325 243f
000001d0: d346 30bf 429d 32be 57d5 8f3d 9f19 dbbd
000001e0: 8290 04bf a96a 9e3f 8198 03bf d5c2 c7be
000001f0: 4004 97be b395 0c3e 3f8d cabc c3b3 40be
00000200: 45ff 90be a908 133f a040 66be 5d89 3b3f
00000210: 5835 a6be f00d 773e a13e 603e 34bd 543d
00000220: 88ec 5bbd ff00 443e 1367 ce3d cb76 3c3e
00000230: 947b 873e 7cfe babe 6a1d b03d 1fa5 233e
00000240: 5149 afbe 7835 c1be 7f96 433f 6f22 64bd
00000250: 3e06 42be 2dbd 95bc 904d 85bc 5375 0fbe
00000260: 3d9c c43c 5eb8 5abd 743b 013f 7748 24be
00000270: 7ccf 343f f81a aebd ef0f 853e d9db 21bc
00000280: d434 1d3e eb2b 90bc 94ec cf3e 8c98 95be
00000290: eec8 773d 1ef6 143e 728b a5be 35be 1ebe
000002a0: aae7 b6bd 7256 0d3d e518 96be 81b0 2c3f
000002b0: 51c3 1fbe fb1a 96be 5518 25be 8d1b 23be
000002c0: ea10 c53d 4702 1f3e d7b5 b2bd bd62 02be
000002d0: 2bf2 023e 60f7 18be 9ac7 4cbc 0807 04be
000002e0: e728 75bd d0f2 9e3d b386 c8bd c3a0 dabd
000002f0: d7f7 85bd 6739 72bc 48ac 42be cda4 973c
00000300: dae5 3dbe 7769 b63d 9ad8 24bd ba9e 7a3d
00000310: da70 3bbe 9378 a13d c32c d93d 73fc 8dbd
00000320: 602b 303d 5760 3c3e 1c34 1fbf 4bf6 b9bd
00000330: c8a2 523f 48b3 bfbc e668 d63e 6d61 86bf
00000340: 8355 9e3e 157d 023d 53f2 973c fdae 8b3d
00000350: 51ff 463e fd15 233d e9f2 a93e 8e43 843e
00000360: ea29 4cbe c46c b73d 80ba 2dbd 9cdb f3bd
00000370: cf0a e7be 98d6 b33e 53a2 283e df00 4fbc
00000380: c1e0 e6bd 6a34 9d3d 640b 4f3e 9b0f 62bd
00000390: 9553 a23e a2e3 7ebf 836c 8e3e 0324 30be
000003a0: 60bb d03b 1b1e 9cbe 27a6 8dbe 5c18 ea3e
000003b0: 2a08 eb3e a6d1 0bbf b5a2 35be 54f7 0f3e
000003c0: f905 913e b2a6 463c 4e89 253e 4944 553e
000003d0: 49ab 8d3e c5c0 713e 37b6 243e a34a ccbd
000003e0: d273 e73c bf99 993e 9327 f23d 16e0 b9bd
000003f0: 10f0 99be f36d 04be c357 003f 087b 2bbd
-0.32557297 0.12915839 0.20441121 0.019205771 -0.4384827 0.041228384 0.25145873 0.47822013
-0.036531117 0.13856567 -0.1524839 0.23827355 0.08371454 0.14130531 0.07923431 0.028381562
0.13888027 -0.12216168 -0.33983356 0.118280396 0.41967756 -0.112419136 0.26781753 0.2500974
0.066406734 0.30986688 -0.027853519 -0.19002005 0.13577539 -0.76920134 0.094004616 -0.36047763
-0.15486531 -0.45811608 -0.043468494 0.4755787 0.64557844 -0.5094854 -0.3164363 -0.2677164
0.20506524 0.2573519 -0.120584734 0.44458663 0.44266367 0.545246 0.10201993 0.12175155
0.01793537 0.36538705 0.16359307 -0.094567634 0.4034433 0.36058587 -0.8132677 0.124094024
0.103953935 0.7628551 -0.14911494 -0.037963554 0.36055315 0.34999114 -0.20761095 0.19253016
0.07638815 0.10975844 0.34901032 0.0092368275 -0.060256448 0.2802734 0.46394584 -0.18589438
0.053333633 0.1636294 0.1911217 -0.03204921 -0.16397358 -0.08964509 0.1545383 -0.5036387
0.084193684 -0.22593892 0.32351688 -0.1777785 -0.061254255 0.09264979 0.06723962 -0.32926142
-0.11112112 0.30351192 0.2094748 0.21404311 -0.103353836 -0.17412597 0.20928536 0.46069118
0.26093754 0.015135971 -0.23179193 -0.07811306 0.11501796 -0.14367999 0.29472715 -0.22181006
1.07383 -0.49501988 0.747187 -0.34191796 0.5057138 0.06479006 -0.09330532 0.15029465
0.6552184 -0.37388533 0.083675526 0.6411964 -0.6885807 -0.17442802 0.07023113 -0.10698246
-0.51783 1.23763 -0.5140458 -0.39015833 -0.2949543 0.1372898 -0.024725555 -0.18818574
-0.28319755 0.5743509 -0.2248559 0.73256475 -0.32462573 0.2412641 0.21898891 0.05193825
-0.05369237 0.19141005 0.100782536 0.18404691 0.2646147 -0.3652228 0.0859936 0.15980957
-0.34235623 -0.37736106 0.76401514 -0.0556969 -0.18947694 -0.018278683 -0.016272336 -0.140096
0.024000281 -0.053398483 0.50481343 -0.16043268 0.70629096 -0.08501238 0.2598872 -0.009879076
0.15352184 -0.017599067 0.40610182 -0.29217947 0.060494356 0.14547011 -0.3233295 -0.15502246
-0.08930905 0.03450627 -0.29315868 0.67456824 -0.15601851 -0.2931746 -0.16122563 -0.15928479
0.09622367 0.15528212 -0.087260894 -0.12732978 0.12787692 -0.14938116 -0.012498761 -0.12893307
-0.05985346 0.077611566 -0.09791317 -0.10675194 -0.06541412 -0.014784194 -0.19011033 0.0185112
-0.18544713 0.089068346 -0.04024563 0.06118653 -0.18304768 0.07884326 0.10604241 -0.069329165
0.043010116 0.18396126 -0.6218889 -0.0908018 0.82279634 -0.023400918 0.41876906 -1.0498482
0.30924615 0.03185757 0.018548166 0.06820486 0.19433333 0.03981589 0.33193138 0.2583279
-0.19937864 0.08956292 -0.04241419 -0.119071215 -0.45125434 0.3512466 0.16468172 -0.012634485
-0.11273337 0.07676013 0.20219189 -0.055190664 0.31704393 -0.9956609 0.27817163 -0.17201237
0.006369993 -0.3049172 -0.27665827 0.4572171 0.45904666 -0.54616773 -0.17737849 0.14059192
0.2832487 0.012124704 0.16165659 0.2082683 0.27669743 0.23608692 0.16085134 -0.09975173
0.02825347 0.3000011 0.118239544 -0.09075944 -0.30065966 -0.12932567 0.50133914 -0.04186538

fc5.bias f4 [25]
00000000: 0d4c 2b3e cbc0 dd3e b4c7 8f3e 8669 ff3c
00000010: 3798 593e 976b 703d b7f8 a43d ea44 c5bd
00000020: 7bbf 7e3e fb57 dd3d 69ca 4d3e 66a1 f93c
00000030: 9747 eebc 41cf 47be 418c 8ebe 0441 513d
00000040: 24fe f7bc 4f9b 643e c204 17be 00f9 1cbe
00000050: c175 143e db82 f53d dbbf 3a3e 023a b53e
00000060: 2764 f93d
0.1672823 0.43311152 0.2808205 0.031178247 0.21249472 0.058696356 0.08055251 -0.09632285
0.24877732 0.108077966 0.20096745 0.030472469 -0.029086871 -0.19512655 -0.2784138 0.051087394
-0.03027255 0.2232487 -0.14747909 -0.15329361 0.14498045 0.11987849 0.1823725 0.3539582
0.12177306

fc6.weight f4 [1, 25]
00000000: 5f34 bfbe 848a b5be 8f96 f8be e7c3 80be
00000010: 5edc 8a3f 1356 0b3f 5147 073f 476c 173e
00000020: fcaf 193f 3698 37bf 39ab 0d3f 0c9e 06bf
00000030: 52f1 003f 31d6 ba3d 6f67 553f 4b53 c5be
00000040: cc9c 623d f927 013f 969b f4be 6d02 a63d
00000050: 3484 053f 45a4 d63e e949 aabe 266b 38bf
00000060: a62b 263f
-0.37344643 -0.35457242 -0.48552367 -0.25149462 1.0848501 0.54428214 0.52843195 0.14787398
0.60034156 -0.7171663 0.5533939 -0.5258491 0.50368226 0.09122885 0.8336095 -0.3854011
0.055325314 0.5045162 -0.47774953 0.081059314 0.5215485 0.41922203 -0.33259514 -0.72038496
0.6491035
