saved_models/model1.pth (torch, 14818 bytes, 11 tensors)

fc1.weight f4 [25, 2]
00000000: cf61 c73e 584c e5be 3d92 62be e195 2cbe
00000010: 942c 0f3f 04dd 1e3f 656f 4b3d 2f18 28bf
00000020: e085 d73e 7200 00be c205 e1be b6a9 11bf
00000030: fd79 d43e f496 083f c102 12bf f133 f8be
00000040: b634 873e 0b26 fcbe 2631 0f3f df6c ea3e
00000050: e9e6 15bf c0cd f43e 9c00 a2be c925 323e
00000060: fa0e 883c f496 2c3f 2f72 c33e 0747 9f3e
00000070: d2ab 1dbd 888b 21be 0939 fb3e 9b47 3b3d
00000080: d43b 15bf a145 c23e 8795 41be 486b 673e
00000090: 2f5b 3ebf 236d c23e a16e 50be 6fe3 0d3f
000000a0: 6ded 60be c6a5 c13e 2b9a d33d 69ea cd3e
000000b0: 0d7b 0e3f ad34 953e 3ac3 a63e 20fe 87be
000000c0: 28f6 4dbe 87b3 a73e
0.3894181 -0.44784808 -0.22126098 -0.1685405 0.55927396 0.62055993 0.04966678 -0.656619
0.42094326 -0.1250017 -0.43949705 -0.56899583 0.4149932 0.53355336 -0.5703545 -0.48477128
0.26407403 -0.49247774 0.5593437 0.45786187 -0.58555466 0.47813225 -0.3164109 0.17397226
0.016608704 0.67417836 0.38173053 0.31108877 -0.03849394 -0.15775883 0.49066952 0.045722585
-0.58294415 0.37943748 -0.18904696 0.22599518 -0.74357885 0.3797389 -0.20354702 0.5542516
-0.21965571 0.37821788 0.103321396 0.40217903 0.5565651 0.2914175 0.3257082 -0.2656107
-0.20113432 0.32754156

fc1.bias f4 [25]
00000000: 7aea 563f 37c3 23bf 05f8 99be bcab 6bbf
00000010: 1977 46bf e2cd 54bf 775d 13bf bde1 4c3f
00000020: f547 f83c 41de e23e 155d 4fbf 4dab 463e
00000030: 3f5a 583f 7143 403f c9d7 bbbe a715 5bbf
00000040: 273a 3c3d e438 e3be 38a7 edbe 0f4b 85bd
00000050: 7ab1 19bf 8574 6fbf db6b 63bf e552 463f
00000060: 04c2 723e
0.8395153 -0.6396975 -0.30072036 -0.9205892 -0.7752548 -0.8312665 -0.5756449 0.8003195
0.03030775 0.4431019 -0.81001407 0.19401284 0.84512705 0.7510291 -0.36688069 -0.85579914
0.045953896 -0.44379342 -0.4641664 -0.06508457 -0.6003643 -0.9353717 -0.8883645 0.77470237
0.23706824

fc2.weight f4 [25, 25]
00000000: cb42 96ba aadb 4abe 51ee a2be f75b 8abd
00000010: 1b9e 223e 1a56 0e3e 842e 98bd c3e9 15be
00000020: 081f 973d 31d9 71be 0cd7 1abe c236 ac3d
00000030: 2da6 e63d a362 88bd bf5d 62bc 1eba 81bd
00000040: 56f0 a33b 51a7 943d 518a 89bd ae0f 24be
00000050: 005a 24bb b2f3 3dbe 1a6c 19bd 36f1 2f3d
00000060: 82cc b1bd cfcb f5bd c181 3c3e 2008 5b3e
00000070: 9c56 963d f658 28bc a392 b23e 3008 5e3d
00000080: 5e22 813e 6f18 8a3c c2f1 273c 56be 0a3e
00000090: 9fe4 f43b 37f9 14be 9a87 edbd eefb c0bd
000000a0: e221 8bbe ada7 393e 1d1d 043e a4aa e63d
000000b0: f124 2e3e cea1 1c3e c1dd 573e 92da 6abc
000000c0: 3cb2 dcbc 0e2e 64bd 4413 80bf 0fb5 55bd
000000d0: 8da9 6ebe 54a0 413e bc49 8a3d 7c25 28be
000000e0: 26ed 8abc 3945 e7bc b889 dcbe 6b49 7bbe
000000f0: 59a5 b13d 6388 0b3e 4700 b63d 698d f9bd
00000100: de1b a13d 6517 78be 86e2 233e 2c5c 0b3d
00000110: 993a 133e 5a95 3abe 02b0 703d e8ae 36be
00000120: 9ecc c4bc c11a 08be 6707 ae3d ee45 013e
00000130: 0ac1 91be 4274 94bc 941c 10bc 3bc2 3abe
00000140: d9a6 94be f400 94bd 628c 4cbe 58a5 5d3e
00000150: fb5c c73d b0cd 093e bb73 5c3d fd64 c73d
00000160: a2be e33d 1697 95bd 818d 943d 0530 31bc
00000170: 0f41 4c3e 9ec7 363e c6a5 debd fb56 47be
00000180: 2513 50bd 36b9 3fbe fe45 2abb 6517 693e
00000190: f7a6 293e f604 87be 713f c5bd b16e d7bb
000001a0: 8250 d33d c5d6 21be 66dc 48be 6468 fabb
000001b0: 91fa 183e 46cc 6fbd 169b 073e 2209 273c
000001c0: 3038 763e d35c 9bbd 7f78 eabd 133d b2bd
000001d0: 58ac e6bd 341f 2a3e abfb 553b f874 acbd
000001e0: 0754 98bd 9ea8 38bb ff39 88be 51bb febd
000001f0: d559 3a3e c585 ef3d 3be5 a5be 8877 033e
00000200: 63fa f3bd 4412 f43d 946d a9be 2cf6 453e
00000210: eef4 7e3c 508e 05be 586a d83a 670e d93d
00000220: 3b16 183e f828 a73e f6d9 f93a 7028 903d
00000230: f389 bdbd 3f57 163e 8970 5dbd 0e5f babd
00000240: af2f 5e3e fc31 323e cf4e 8e3e 8df4 183e
00000250: 407f f03d 52c8 8ebc a32a 4d3e 16e6 4f3e
00000260: 692c 633e 7f43 bbbd 9c7b ba3d 3aa2 9f3d
00000270: 0472 2c3d f9cc 933d dc86 32be 5dfd 043e
00000280: b0b0 71be 7fbf debd 3aba 4f3e ae38 513e
00000290: 7838 c2bd 06ed 29be 7b06 a23d 70fa 0bbe
000002a0: ab17 11be cb4c e73d d443 88bc cf49 93be
000002b0: 36f8 573e dac1 1b3b e8aa 3fbe 3408 83bd
000002c0: ebdf 1b3e aa15 6abe 8d0f 333e 403b e8bd
000002d0: d016 1e3e 7478 84bc 0cbd 963e 2b26 a6bd
000002e0: 4f3c 08be 41ee a0bd ed76 f5bd ef53 e7bd
000002f0: 0a7e 943e bd2c 62bc d7a7 babe 4862 143d
00000300: b6b4 d6bd 79c4 963d 3b35 3a3c 4c85 32be
00000310: 35d8 eabd 697c 28be 2de2 8bbd 69c0 623d
00000320: 97ba 67bd 80af 58be f9bd 11be eae2 753e
00000330: ef56 753e 44b8 edbd bfc7 8bbe b4b4 4fbe
00000340: 4d6b 853d a926 2dbe 4ab9 e53d 37f2 3dbe
00000350: c583 b5bd 654d 0abe b65f 323e b33c aa3d
00000360: f6a1 1c3e b4d4 1abe 25b6 1fbe 62db 17be
00000370: 4e36 1b3e 68d3 e53b f7c4 8d3c 66c4 403e
00000380: 6e16 69bb 2805 d0bd f72b e13d 3a0a 19be
00000390: 011c dfbd 49a5 23be cbe7 323e 68fc c3bd
000003a0: f74b 6d3e e669 fa3d ce3d 3bbe e7aa edbb
000003b0: c3af e7bc 7fcb bbbd 381b 5a3e 188a ae3d
000003c0: a9c0 7ebb e3ae 313e b6a1 fdbc c0c3 1abc
000003d0: 52a9 60bd 54d2 febd bc7f 38be 129e 8cbe
000003e0: 6b6e 7abd ff7d 61be b91f a4be ec2c 393e
000003f0: 4572 e0bd d98b d3bc f71b 0dbd 6d79 d03d
-0.0011463998 -0.19810358 -0.31822446 -0.06755822 0.15880625 0.13900033 -0.07430747 -0.14639954
0.073789656 -0.23618008 -0.15121096 0.08408882 0.11262164 -0.066594385 -0.013816296 -0.06334327
0.0050030155 0.072584756 -0.06715835 -0.16021606 -0.0025078058 -0.18549994 -0.03745661 0.042954646
-0.08681585 -0.12001764 0.18408872 0.21389818 0.07340738 -0.010275116 0.348775 0.054207027
0.25221533 0.016857354 0.010250511 0.1354917 0.007473543 -0.14548193 -0.115981296 -0.09423052
-0.27174288 0.1813037 0.12901731 0.11263016 0.1700628 0.15296099 0.21080686 -0.014334338
-0.026940458 -0.055707984 -1.0005879 -0.052174624 -0.23306866 0.18908817 0.06752345 -0.16420549
-0.016958784 -0.02823125 -0.4307382 -0.24539725 0.08674116 0.13626246 0.08886772 -0.12185175
0.07866643 -0.24227674 0.1600438 0.03402345 0.14377822 -0.18221036 0.058761604 -0.17840159
-0.02402335 -0.13291456 0.08497506 0.12624332 -0.2846759 -0.018121842 -0.008795876 -0.18238156
-0.29033545 -0.07226744 -0.19975427 0.21645105 0.097345315 0.1345737 0.053821307 0.09736059
0.11120345 -0.07304208 0.07253552 -0.010814671 0.19946693 0.17849585 -0.108714625 -0.19466774
-0.050799508 -0.18722996 -0.002598166 0.2276283 0.16567598 -0.26370972 -0.09631241 -0.0065744747
0.1031809 -0.15804584 -0.19615325 -0.007641839 0.14939333 -0.05854442 0.13242754 0.0101950485
0.24044871 -0.07586064 -0.11448764 -0.08703055 -0.11263341 0.16613466 0.0032651227 -0.084207475
-0.07437902 -0.0028176676 -0.26606748 -0.124380715 0.1819833 0.116954364 -0.3240145 0.12838566
-0.11912992 0.119175464 -0.33091414 0.19332188 0.0155613255 -0.13042569 0.0016511185 0.1059845
0.1485223 0.32648444 0.001906215 0.07038963 -0.09254827 0.14681719 -0.0540624 -0.091001615
0.21697877 0.1740188 0.277945 0.14937039 0.11743021 -0.017429505 0.20035796 0.20302615
0.2218491 -0.09143733 0.09105608 0.07794614 0.04210092 0.0721683 -0.17434257 0.12987275
-0.23602557 -0.10876369 0.20285884 0.20431778 -0.09483427 -0.16594324 0.07911392 -0.13669753
-0.14169185 0.11293944 -0.016633905 -0.2876725 0.21090779 0.0023766668 -0.1871754 -0.06398049
0.15222137 -0.22859827 0.17486401 -0.11339426 0.1543839 -0.016170718 0.29441106 -0.08112749
-0.13304256 -0.07857943 -0.11985574 -0.11295306 0.2900241 -0.013804612 -0.36456177 0.03622654
-0.104836866 0.07361693 0.01136523 -0.17433661 -0.114670195 -0.16453709 -0.06830249 0.055359278
-0.05657443 -0.21160698 -0.14232625 0.24012342 0.23958944 -0.116074115 -0.27300832 -0.20283777
0.065146066 -0.16909279 0.11216982 -0.18549429 -0.08863024 -0.13506086 0.17419323 0.08312359
0.15296158 -0.15120202 -0.15596826 -0.14829782 0.15157434 0.007013727 0.017305834 0.1882492
-0.0035566348 -0.101572335 0.10994714 -0.14945307 -0.10894013 -0.1598102 0.17471235 -0.09569627
0.2317351 0.1222723 -0.18285295 -0.007253039 -0.028282052 -0.09169673 0.21299446 0.08522433
-0.0038872159 0.1735187 -0.030960899 -0.0094460845 -0.054848976 -0.12442461 -0.18017477 -0.27464348
-0.06114046 -0.2202072 -0.32055452 0.18083543 -0.10959295 -0.02582352 -0.034450497 0.1017941

fc2.bias f4 [25]
00000000: b561 013e 2db6 adbe bb29 64bd badf 0b3f
00000010: 182d 973e dd5a 9fbd 6c0c da3d 9b17 4cbd
00000020: c29a 773d 4abc 9c3e c431 103d 78b3 053f
00000030: 691b 383f fb46 b73e 3564 4e3e 8d74 f03d
00000040: 809f 38be efb1 68bd 3625 cfbe 0a0c 0bbe
00000050: 1678 643f 28b3 b7be 6894 09bf b879 5d3f
00000060: 351f 853e
0.12634929 -0.33928052 -0.05570386 0.54638255 0.2952659 -0.07781003 0.106469005 -0.0498272
0.060450323 0.30612403 0.03520371 0.5222697 0.71916825 0.3579634 0.20155413 0.1174098
-0.18029594 -0.056810316 -0.40458077 -0.13578811 0.89245737 -0.35878873 -0.53742075 0.86513853
0.26000372

fc3.weight f4 [25, 25]
00000000: 00c0 e93c c3b8 41be e7ba 63bc 909d bdbd
00000010: cd9b c1bb ed5c 8cbd 10d0 2cbe 4a6d d9bd
00000020: da72 e43d a268 093e dad4 ba3c 7af2 243d
00000030: 8340 8a3d ed37 95bd a0cb f1bd 5f78 27be
00000040: e0d9 5ebd dab5 273d 9765 b03d 6a9c 06be
00000050: b7d9 cb3d 8736 30be b3d3 41be 405c cfbd
00000060: 63f6 16be 1740 96bd f347 5e3d ff1f 6e3e
00000070: 329c 7a3e 445a 673e e2ab 2f3e 3b9e 3abe
00000080: 6ee1 53bd ab1a cd3e 8fb3 c2bd a979 dfbd
00000090: 35e1 ee3d dbe5 413e 4a95 08be 4614 123d
000000a0: f879 923d e64c 873e 1cef 18bd 282c 9d3e
000000b0: 0dee 313e ae10 3bbe 7fc3 3abd b006 113d
000000c0: 71c2 603d d28b 813e 6541 da3d 56a7 aa3c
000000d0: a6a6 59be 3ad3 833e 9fe1 9d3e d560 4f3c
000000e0: 0725 36be d93d 4c3e edea ba3e 3af2 c3bd
000000f0: e72f ec3c ad2d c93d b932 76be 5095 003e
00000100: f45e 813e e3e1 563d e4f1 353e b8b9 96bd
00000110: 0ab6 50be 57d8 cfbc b178 a6be 6023 8a3e
00000120: b51c 31be 42d6 bd3d 57a3 1a3d 1e06 e6bd
00000130: c8c2 213e 0f08 203d fd17 59be 2867 5dbd
00000140: b779 3d3e 3266 2d3c 20cc 993d 2402 ad3e
00000150: caeb a43d 627e ce3d 01eb 32bd 3efd 123c
00000160: d30e 643e 7529 8fbd 3a96 47be ca77 753d
00000170: 36e7 7f3e ac5c a03e c432 683e 219f 59be
00000180: b644 96be 9b75 5e3e ce96 40bf 542c 0fbe
00000190: bbb7 d23d 61bc 77bd 8ad8 783d eefb 233e
000001a0: 323b 3f3e 6f51 8b3d 7c94 5d3d aa17 933d
000001b0: 1302 bb3e 66bf a13d 2cbd aebd 1904 9c3d
000001c0: 5cf5 af3c 320c 0b3e 9e93 f1bc 0061 f2bb
000001d0: 2608 e6bd 46e6 133e e87c 32be 3b7c f83d
000001e0: 54d3 473f a20a 94be 7702 8abe 853c b73e
000001f0: e7f6 2f3e 7809 79be 036c 6b3e 9858 013e
00000200: 9f3d 2a3e 6ce7 4abd 7f6c f93d 5dcd 7d3e
00000210: 2cb9 7c3e 0dd0 09bc a18f 533d 8900 37be
00000220: 482d acbe 98e8 3dbe d947 153c d9a2 153e
00000230: 1ae0 3bbd 5580 77bd 80c6 673d 025f 863e
00000240: 7542 e13d 092d b0be 1d41 dc3d d40c 8e3e
00000250: 84cd d8bc 0c53 a23d fba6 8a3e 9031 6d3d
00000260: 1721 b1bd 0349 02be 90df 5b3e bd0e 3cbe
00000270: d68f 203c b755 fe3c d338 823c 6087 383e
00000280: ca07 b03d 28ee 93bd ec25 2c3d 00a8 af3c
00000290: cd3c 373e aad6 153d 517c 7dbc 894b 5d3d
000002a0: 766b ab3d 8948 45be 18c2 11bf 3466 173e
000002b0: 9adb 0dbe 2798 023e ba06 e4bd 9ffb 25be
000002c0: bc6f 043d 8460 febd 6a36 fbbd bb08 3c3d
000002d0: aae7 66be 11cb ea3c cd30 013e d273 b8bd
000002e0: 477b 513e f053 93be 46ac ff3d a921 cebe
000002f0: d485 2c3e 0648 ecbd 9521 fc3c a061 00bd
00000300: b807 8dbc ed34 0e3e b145 70bd 5bfc 2d3e
00000310: 7fd4 bdbd e9f0 05be 72b6 903d bcfa 54bd
00000320: e463 f4be aa4e 453e 2107 95bc e58a a8bd
00000330: f053 a2bd 19df 4bbe a100 08bd 8400 923e
00000340: f96a a1be d8ea 753e 30b2 2abe cc50 df3d
00000350: 3468 70be cddf 1fbd 9dfc a53d de80 1a3c
00000360: b148 e3be 47e3 373b 0e0e b43d 033d d9bd
00000370: d682 7a3e c873 5abd 8616 e33d 4063 9abe
00000380: be53 f4bc 41b6 96be b79d 5d3e 9309 413e
00000390: 10dc 10be 28b9 a63c 2fa3 3ebe 267e 88be
000003a0: 0c48 0abe 8d28 08be 704b 3b3e 6d2c 2a3e
000003b0: 094f 913c 6523 74bd 914b 6fbe 6d6d ddbd
000003c0: ebdc 87be fdf5 db3d 65f6 e03d a058 2d3d
000003d0: 04ed 983d 72a7 73be e674 e83d 1192 d5bd
000003e0: f68a 393e a67e 033e 5c95 48bd 78e4 553e
000003f0: 3074 ee3a 7b32 163e 10eb 02be e466 18bd
0.028533936 -0.18918137 -0.013899541 -0.09258568 -0.0059084655 -0.06853662 -0.16876245 -0.10616548
0.11154719 0.1341882 0.022806574 0.040270306 0.06750586 -0.072860576 -0.118064165 -0.16354512
-0.054407 0.04094491 0.08613127 -0.13145605 0.09953635 -0.172083 -0.18928413 -0.10125017
-0.14742427 -0.07336443 0.054267835 0.23254393 0.24473646 0.22593027 0.17155412 -0.18224423
-0.05172866 0.4005941 -0.09506904 -0.10911877 0.116640486 0.18935339 -0.133382 0.035663866
0.0715217 0.26425856 -0.037337407 0.3069775 0.17375965 -0.18268082 -0.045596596 0.03540677
0.054872934 0.25301987 0.10657004 0.020831745 -0.21254978 0.2574709 0.30836198 0.012657364
-0.17787562 0.19945468 0.3650736 -0.095676854 0.028831435 0.09823165 -0.24042787 0.12556958
0.25267756 0.052461516 0.17768055 -0.07359642 -0.20381942 -0.025371714 -0.32513955 0.26980114
-0.17296107 0.09269382 0.03775343 -0.112316355 0.1579696 0.039070185 -0.21200557 -0.054053456
0.18503462 0.010583447 0.07509637 0.33790696 0.08052786 0.10082699 -0.04368115 0.00897151
0.2227128 -0.06990329 -0.194909 0.059928693 0.24990544 0.31320703 0.22675616 -0.21252109
-0.29349297 0.2172455 -0.7523011 -0.13981754 0.1028895 -0.060482386 0.060753383 0.16014072
0.18674925 0.068026416 0.054096684 0.07182248 0.3652502 0.078978345 -0.085321754 0.07617969
0.021479301 0.13578871 -0.029489335 -0.007396817 -0.11232023 0.14443311 -0.1743046 0.1213307
0.78056836 -0.28914362 -0.26955006 0.3578836 0.1718403 -0.24320018 0.22990422 0.12631452
0.16625069 -0.049537107 0.12178897 0.24785371 0.24680012 -0.00841142 0.051650647 -0.17871298
-0.33628297 -0.18545759 0.009111368 0.14612903 -0.045868017 -0.06042512 0.05658579 0.2624436
0.10999004 -0.3440936 0.10754607 0.27744162 -0.026465185 0.07925996 0.2708052 0.057908595
-0.086488895 -0.12723164 0.21472001 -0.18364997 0.009799918 0.031046731 0.015896237 0.18020391
0.08595236 -0.07223159 0.042028353 0.021442413 0.17894287 0.036581673 -0.015471534 0.054027114
0.08370106 -0.19265951 -0.5693679 0.14785081 -0.13853303 0.12753354 -0.111340955 -0.16209267
0.03233312 -0.12420753 -0.12266238 0.045906764 -0.2254931 0.028661283 0.12616272 -0.09006466
0.20457183 -0.28774977 0.124840304 -0.40260056 0.16847926 -0.11537175 0.030777732 -0.031343102
-0.017215595 0.13887377 -0.058660213 0.16990797 -0.09269046 -0.13080181 0.07066049 -0.05199693
-0.4773246 0.19268289 -0.018191876 -0.08229617 -0.07926166 -0.19909324 -0.033203725 0.28516018
-0.31526926 0.24015367 -0.16669536 0.10904083 -0.2347725 -0.039031792 0.08104823 0.009430138
-0.44391397 0.0028059052 0.08791743 -0.1060734 0.24463972 -0.053333074 0.110882804 -0.30153847
-0.029825088 -0.29435924 0.21642195 0.18851309 -0.14146447 0.020351961 -0.18616937 -0.26658744
-0.13504046 -0.13296719 0.18290496 0.1661851 0.017737882 -0.059604067 -0.2336867 -0.10811887
-0.26535735 0.10740278 0.10984496 0.042320848 0.07467082 -0.23794344 0.113504216 -0.104282506
0.18119416 0.12841281 -0.048970565 0.20887935 0.0018192586 0.14667694 -0.12784982 -0.0372075

fc3.bias f4 [25]
00000000: 8d23 db3c e63e 103d e780 313e 2e94 0abf
00000010: 8abd 423f b0ad d0be 3eb7 51be 0d2e 2f3e
00000020: 05c9 6dbe 89e4 28be 31e8 a5be 97f7 13be
00000030: de81 16be 6e16 e63e dae7 353e 9575 cf3d
00000040: 436f a3bd c9ae 423f 24ec d3bc 115b 993e
00000050: f8e0 e33e dcae 07bc 1a7c 95be 5eee 183f
00000060: 39cc 85be
0.02675035 0.035216235 0.17334329 -0.54132354 0.76070464 -0.40757513 -0.20480058 0.1710741
-0.23221214 -0.16493429 -0.3240371 -0.14449917 -0.14697978 0.44938987 0.17764226 0.10129849
-0.07980206 0.7604795 -0.025869437 0.2995229 0.44507575 -0.008281436 -0.29196244 0.5973872
-0.26132372

fc4.weight f4 [25, 25]
00000000: 63f0 893d 58d4 863e 06c2 f73d 7c84 503e
00000010: 444a 4f3e e912 fc3d 5ced cbbe 2662 77be
00000020: 4ad1 d1bd 96e1 193e a499 c23e bbc0 1bbe
00000030: e9ae 96bd ba1c 603e d80b 8ebd 43d1 c6bd
00000040: 092a 16bd f3a5 4abe 47ab 6a3e 5226 e93d
00000050: 4980 5e3e cfef 2dbe c18d 9fbd 5fa1 68be
00000060: da42 dbbd da29 913d 4ae5 e4bd 48ab 4bbe
00000070: 7c75 54bd cca6 dabe c1f2 023e e47e 72bd
00000080: ce28 09be e824 203d 0c0c 023e 9837 7dbe
00000090: 7fd6 3d3e c6e1 423e fff3 4abe 8760 3f3d
000000a0: 8eb3 983e 5060 503e 35f3 8e3f db1b 173e
000000b0: b499 b63e 3574 81bd 00d8 403e c379 fb3d
000000c0: 79e9 d03d b363 6e3e 4d69 2ebd 5317 1b3e
000000d0: 7a37 573e f7b2 243e 0e53 15be 485e 043c
000000e0: fdd4 0f3e c5db 653c 4839 a43e 61a9 c8bc
000000f0: 52bf 1cbf 1981 083b 36e2 bc3d 5e15 833b
00000100: f314 993e 0982 cf3c 4ebf cdbc 9951 943d
00000110: 0756 5ebd 920a 723e 6155 a9bc 4922 0a3e
00000120: e31e 88be a83d 403c 44aa 01be c37e d33d
00000130: 259d 3f3e badf 43bd 93fc 0d3d 1ada 303c
00000140: 6860 a93d ca01 3ebe 5876 353d acdf a7bd
00000150: 3c67 c93b bc64 b53d 4d5c 283e 3705 f6bc
00000160: 69c4 a83a f23f 1b3d 71d0 00be a0d9 38be
00000170: 2c0b ba3c 5563 f63d 0127 29be 308d 37be
00000180: 2203 c73b 3f6a adbd 3d5b aabd b2e0 0a3e
00000190: a07a 203e de54 fd3c 3f80 a13d 48ed c53d
000001a0: 2203 bcbe c8e1 e63c 2bbb 633c 3d31 01bd
000001b0: 91a2 a93e 607f 713e a9e4 a5be 5df3 483e
000001c0: 47c5 20bd 01ba 523e c1d5 0ebb 9de0 6f3e
000001d0: 0d06 763e 6f43 6f3e 73e1 df3d bee0 03bf
000001e0: fa58 053e afd8 8cbd f15e 4b3e 4ab4 3fbe
000001f0: 77ad 0b3e 275f 08bd dcdf 443c ca6e bb3e
00000200: a7e0 d5be d298 fc3e a3ae ef3d bb59 293d
00000210: 8d91 d33d 74b8 fdbd 6254 a53d a5ac 91bd
00000220: bfec 323e 5619 483e 2634 45bd f665 503e
00000230: 60ee ef3e 7d00 ba3c b325 70bf ed20 11be
00000240: 79a8 1abe 0e86 0bbe 2e28 4bbd ae4a 363d
00000250: 42dc b8bd 4f7d 7a3d 0d8e 7fbd 8286 5c3e
00000260: 5b16 e7bd 6000 d8be 0d2f 193f 9b84 18be
00000270: 04bd 19be 58f7 abb8 6f5f d73c ce9a 88bd
00000280: d5c4 333e 61ae f23c 3a5b 4e3d 10a3 c6bd
00000290: 980f d2bc 1fcd 053d 43e7 f4bd 2288 3dbe
000002a0: 756c 2f3e 1e40 03bf 8b04 063e f674 223e
000002b0: fe52 7dbe de52 b03d 51c0 58b9 dd5b 483e
000002c0: c08e 223e 1ff6 93be c7c6 1cbe d597 2c3d
000002d0: c635 debd 33d3 383d 113e 1b3d a012 4bbe
000002e0: 69de 88be 721c 0dbe 4438 d1bd 827d 61be
000002f0: df2a 71be 0175 063d 23c6 2fbe 71a8 db3d
00000300: 290d c93d 5834 0d3e 363e 833d 7708 8e3c
00000310: 6828 da3d 9f44 543c 74c9 dfbd 852b 76bd
00000320: 8d34 ae3d 9ba9 13be 7f44 e3be d32c 32be
00000330: 93b9 6d3e 6cbc 9cbe abab 2ebe 8dd1 eebe
00000340: a441 63be c2a4 5c3e e42e b2bd c063 5cbe
00000350: 9288 3abe 4cd9 423d 80f2 95be 5c67 9fbe
00000360: 22b8 2cbe 3af2 0b3f 88d0 07bd 3927 27bf
00000370: 0e92 023e 9f84 cabd 0612 88be e534 a03e
00000380: aa46 9ebe 6374 043e 636c 6f3e a6d2 febd
00000390: 6c00 17bc 2e45 b83e 47c5 463d 3452 9ebd
000003a0: cdc1 88be 2986 073d 089d dcbd e6bb 913e
000003b0: 14d2 4dbe c303 3d3e e77f 8e3e 396e 503d
000003c0: e8f6 05bd d662 f0bd 0fe1 66bd 15e2 3c3d
000003d0: e109 a3be 7e71 2f3d b49d 443c a54e 63be
000003e0: 0607 6e3e d4df d53d da95 693d 346e b93c
000003f0: a62e cf3d 1a2c 4d3e 7239 573d 5031 643e
0.06735303 0.2633388 0.12097554 0.20363039 0.20243174 0.12308294 -0.39829528 -0.24158534
-0.10244997 0.1502746 0.38007843 -0.1521024 -0.0735758 0.21885958 -0.06935853 -0.09707882
-0.03666118 -0.19789867 0.229169 0.11384262 0.21728624 -0.16986011 -0.07790709 -0.22717808
-0.1070611 0.07088061 -0.11176546 -0.19889557 -0.051869854 -0.4270538 0.12787916 -0.059203044
-0.13394472 0.039097697 0.12699908 -0.24728239 0.18538855 0.19031438 -0.1981964 0.046722915
0.2982449 0.2034924 1.1167971 0.1475672 0.3566414 -0.06320993 0.18832397 0.122790836
0.102007814 0.2328022 -0.04258089 0.15145616 0.21017256 0.16083895 -0.14582464 0.008079119
0.14046092 0.014029448 0.32074952 -0.024494829 -0.6122943 0.0020828901 0.09222834 0.00400035
0.29898795 0.02533056 -0.025115635 0.07242126 -0.05428126 0.23636845 -0.020670595 0.13489641
-0.26586065 0.01173345 -0.12662607 0.10326912 0.1871229 -0.047820784 0.0346647 0.010794187
0.08270341 -0.1855537 0.044302315 -0.08196959 0.0061463397 0.08857104 0.1644146 -0.030031784
0.0012875918 0.03790278 -0.12579514 -0.18051767 0.022710405 0.12030665 -0.16518785 -0.17924953
0.0060733715 -0.084675305 -0.083181836 0.13562277 0.15671778 0.030924257 0.07885789 0.096643984
-0.3672114 0.028183833 0.013899605 -0.031541098 0.3313184 0.23583746 -0.32401016 0.19624086
-0.03925064 0.20578767 -0.0021794888 0.23425527 0.24025746 0.23365568 0.10931673 -0.51514804
0.13022223 -0.068772666 0.19860436 -0.18721119 0.1364039 -0.03329387 0.012016263 0.36607963
-0.4177296 0.49335343 0.11703231 0.04134534 0.10330496 -0.12388697 0.08072735 -0.071130075
0.17473124 0.19540915 -0.048145436 0.20351395 0.46861553 0.022705311 -0.93807524 -0.14172716
-0.1510333 -0.13625357 -0.049598865 0.044504814 -0.09026386 0.06115466 -0.06239133 0.21535686
-0.11283561 -0.42187786 0.5983742 -0.14894335 -0.1501351 -8.199987e-05 0.026290623 -0.06670152
0.17555554 0.029624166 0.05037997 -0.096990705 -0.025642201 0.03266632 -0.11958172 -0.18508962
0.17131217 -0.5126971 0.1308767 0.1586493 -0.2473869 0.08609556 -0.00020671009 0.19566293
0.15874767 -0.28898713 -0.15310203 0.042136986 -0.108501 0.04512329 0.037900988 -0.19831324
-0.26732185 -0.13780382 -0.1021581 -0.22020534 -0.2355151 0.032826427 -0.17165427 0.10725487
0.09816963 0.13789499 0.0640835 0.01733802 0.10652238 0.012955814 -0.10927096 -0.060100097
0.08506117 -0.14420168 -0.44388196 -0.17399912 0.23215322 -0.30612504 -0.17057674 -0.4664425
-0.22193009 0.21547225 -0.0870035 -0.21522427 -0.1821616 0.04757051 -0.29286575 -0.31133544
-0.16867116 0.54666483 -0.033157855 -0.65294224 0.12751028 -0.09888577 -0.2657625 0.31290355
-0.30913287 0.12935023 0.2338119 -0.12442522 -0.009216409 0.3599028 0.048527982 -0.07730523
-0.26710358 0.03308693 -0.10772139 0.28463668 -0.2009967 0.18458466 0.27831957 0.050886367
-0.03270617 -0.117376015 -0.056366976 0.046114046 -0.31843475 0.042832844 0.01200049 -0.2219797
0.23244867 0.104430825 0.057027675 0.022635557 0.10116319 0.20036355 0.05254502 0.22284436

fc4.bias f4 [25]
00000000: c987 d7bd 3950 e4bd 46ff c4bd 1699 1dbe
00000010: 2fb3 37bd 8a3c a53e b098 043e e053 e3bd
00000020: 4fff 953e f663 2e3e 2f11 9c3d e917 40bd
00000030: 121e 9dbe d2cb 44be fd39 e13e 13e8 043f
00000040: 324e e8be 8d90 153f 7a5a 45be dc7a 953e
00000050: 9d87 c3bb 9d51 133f 7860 acbe f849 39bc
00000060: f887 bdbd
-0.10523946 -0.11148114 -0.09619002 -0.15390429 -0.044848617 0.3227275 0.1294887 -0.11099982
0.29296347 0.1703032 0.07620465 -0.046897803 -0.30687004 -0.19218376 0.43989554 0.5191662
-0.45372158 0.5842369 -0.19272795 0.29195297 -0.005967094 0.57546407 -0.3366735 -0.011309139
-0.092544496

fc5.weight f4 [25, 25]
00000000: 7ab6 a93c a01a 87be f204 88bd e485 943d
00000010: dc35 19be b8d1 3f3e 9755 7f3e bcb3 93be
00000020: 5681 67bb 86c1 5d3e 9f36 083e 02b6 58bd
00000030: cdf4 323e 01f6 193d b697 933c db41 f1be
00000040: f34b 613e 58de 5b3e 5f04 04be f565 7d3d
00000050: 1edd 26be 2f5b 483e b22b b8be 933d 203e
00000060: 389a 7dbd d9b3 84bd 1a2e d13e f9df 5abe
00000070: 9b7f 95be be40 0c3e 502f 17be 534e 3b3d
00000080: 6f8b 46be a780 e2be d5d0 873d 9ae2 d6bc
00000090: 1d5f b73e 8413 90bc 15d0 c73d 8d58 933e
000000a0: a3c4 083f fa21 d3bd 0be6 12bc 42a7 d23c
000000b0: 93cb 30bf 46a5 c83e 9f1c dc3d 466d a4be
000000c0: 828c b0be 0e20 87bd e274 1e3e 381f 20be
000000d0: 0119 6dbe 46ae e8bd 3c6c 503e f210 22bd
000000e0: d698 2b3e 12dd ffbd 790a 6f3c 1019 0fbd
000000f0: ec96 333e 0a65 86bd 7324 e43e 1f29 e1bd
00000100: c43a cebe 160a 04bf 31fd 213e 335b bf3c
00000110: e04f 83bd c8f3 b1bd 629d 2c3e 4098 d7bd
00000120: 110a 72be 4cdc 483e e6c0 91be 3633 5bbe
00000130: 2738 48be 7a51 aa3d dfdd 8fbe 14c7 d8be
00000140: e2b9 593e 24cc a63e 2aed 733d f901 ef3e
00000150: bee7 113e 5c56 92be 8a51 abbe bca3 19bf
00000160: a366 b93d 6388 083f 0ca0 703e 4613 c3be
00000170: e814 f13e 4f67 a8bd b66b 063f 0e39 83be
00000180: 9087 053e ad9f a6be e6d8 883d 614d ebbe
00000190: 4711 003e 89f1 023f 5d6f 883e a104 f03d
000001a0: 7a8a 893d 670a 81be b472 513d fb6b e23d
000001b0: d2ba c1bb 14ba 39bd 2759 aebd 9748 023f
000001c0: 98b8 94be e681 5a3e 6a8e e93e 10df 163f
000001d0: c1a7 cb3d 582d 38be 49b6 e7bc 35e0 bebe
000001e0: 422c e43e 0460 e5be 55fc 443f 54f3 273e
000001f0: c691 bd3d d500 3abe 6807 1e3f 57d7 c2bd
00000200: ef7d a03d e4f7 183e 2516 95be a52c 4cbe
00000210: 0837 9dbd 7f26 4dbf c724 0c3e 8545 d5bd
00000220: f7c7 6c3e 6746 293d c445 af3e b155 093f
00000230: fe92 d33e e908 38bc 1d67 7d3e c1a4 9a3d
00000240: 6ef6 3fbf ac25 bd3e 3f03 17be 145d ba3e
00000250: d672 48be 206d 803e ce61 0cbe a35d ae3e
00000260: f201 433e 57a6 e33d 25ec fc3d 096b 21be
00000270: 86e4 bbbe 66ab 933d 7896 bbbd 4472 90be
00000280: a3af 10bd bb88 673e 93e1 f23b 22c6 ba3e
00000290: 2991 b7bd 6d18 7e3e 4f39 bb3d d516 abbe
000002a0: 2e0e 1c3e e8b8 dabe f75b c93e b295 253e
000002b0: 1920 133f b55e ad3d e2d8 ab3e 6aa5 ed3d
000002c0: f987 eabe 0653 c0bc 28d6 9ebd bd44 cfbd
000002d0: 0059 843e c69c 223e 71c5 a3be 854f be3e
000002e0: 9654 3e3d 2abe 5abd 1a36 fabd a99c b73e
000002f0: 7034 61bd 7664 41bd 6ac0 5fbe cd1a a83a
00000300: 3385 de3e ffeb 49bd d48e ec3e 846a 9c3b
00000310: d49d 173e a2a6 1dbf 2dc2 613e b79b 93bd
00000320: c1d8 303e 0963 babe 24fb 243e 7ff7 b43a
00000330: 3195 a73c 5ae1 b53e db8a 993e be5b 89be
00000340: 3962 ad3e 6c9e 293e 30d7 93bd c8ea 99bc
00000350: 9552 643d 2b8a 86be 5593 85bd 030d c5be
00000360: 11ce a43d 8966 953e 831b 66be 0432 5b3e
00000370: 65d0 94bd 7320 ad3e 64d4 04bf cbcf fabd
00000380: b8dc 0bbe dc60 0ebe 6d2c 47bd 8b2d 8c3d
00000390: 7a1b 68be 969d 8d3d a018 2dbe a5ff 27be
000003a0: 4221 24be 9006 ae3d 4e87 703d 901e e63d
000003b0: 604d 1f3d 5a36 acbd ad02 4dbd 8650 debd
000003c0: 7a19 48bd 0bb5 82bc a1d2 adbd a76f 7e3d
000003d0: fb3c 10be c338 4bbe a358 dabd 3a42 463e
000003e0: d680 5bbd ea12 f7bd c8d2 7fbe 2170 883e
000003f0: ff54 8b3e f142 1bbe 556b d13e f170 09be
0.020716894 -0.263875 -0.06641568 0.072521 -0.14961952 0.18732345 0.24934994 -0.28848064
-0.0035324893 0.21655855 0.13302086 -0.05290795 0.17476197 0.037588123 0.018016677 -0.47120556
0.22001629 0.21471536 -0.12892292 0.061864812 -0.16295287 0.19566034 -0.35970837 0.15648489
-0.061914653 -0.06479616 0.40855485 -0.21374501 -0.29198918 0.13696572 -0.14764142 0.045728993
-0.19389127 -0.4423878 0.066316284 -0.026231099 0.35814753 -0.01758743 0.097564854 0.28778496
0.53425044 -0.10309215 -0.008965979 0.02571452 -0.6906063 0.39188594 0.107476465 -0.3211462
-0.344822 -0.06597911 0.15474275 -0.15636909 -0.2315407 -0.11361365 0.20353788 -0.03956694
0.16757521 -0.12493338 0.014589899 -0.03493601 0.17538041 -0.065622404 0.4455906 -0.10994171
-0.4027921 -0.5157789 0.15819241 0.023358917 -0.06411719 -0.08689076 0.16856912 -0.10527086
-0.23636653 0.19615287 -0.28467482 -0.21406254 -0.1955267 0.08316322 -0.28098962 -0.42339385
0.21262315 0.32577622 0.05955235 0.46681193 0.14248559 -0.28581512 -0.33460647 -0.60015464
0.090527795 0.5333311 0.23498553 -0.38100642 0.47086263 -0.082228296 0.52508104 -0.25629467
0.13039994 -0.32543698 0.06681995 -0.45957473 0.12506591 0.51149803 0.26647463 0.11719633
0.067158654 -0.2520325 0.05113478 0.11055752 -0.0059121633 -0.045343474 -0.08513098 0.50892013
-0.29047084 0.21338615 0.45616466 0.58934116 0.09944106 -0.17986047 -0.028285163 -0.3728043
0.44565016 -0.44799817 0.7694753 0.16401416 0.0925632 -0.1816438 0.6173005 -0.09513729
0.0783652 0.14938313 -0.29118457 -0.19938906 -0.07676512 -0.80136865 0.13685904 -0.104136504
0.23123156 0.041326907 0.34232914 0.5364638 0.41323084 -0.011232593 0.24746366 0.075509556
-0.74985397 0.36942804 -0.14747332 0.36399138 -0.19575056 0.25083256 -0.13709185 0.34055814
0.19043711 0.11115711 0.123497285 -0.15763487 -0.36697787 0.07210426 -0.09159559 -0.28212178
-0.03532375 0.22610752 0.0074121444 0.36479288 -0.08963234 0.24814005 0.0914179 -0.33415857
0.15239784 -0.42719197 0.39327976 0.16170385 0.5747085 0.084653296 0.33563906 0.11603816
-0.45806864 -0.023477089 -0.07755691 -0.10120533 0.25849152 0.15880117 -0.31986573 0.37170044
0.046467386 -0.05340401 -0.1221735 0.3586171 -0.05498165 -0.047214948 -0.21850744 0.001282537
0.43460998 -0.04929733 0.4620272 0.00477344 0.148063 -0.61582386 0.22046728 -0.072074346
0.17270185 -0.36403683 0.16111428 0.001380667 0.020456882 0.35523492 0.2998875 -0.26827806
0.33864 0.1656434 -0.07218778 -0.01878871 0.05574282 -0.2627729 -0.06522242 -0.3848649
0.080471165 0.2917979 -0.22471432 0.21405798 -0.072663106 0.3381382 -0.5188658 -0.122466646
-0.13658416 -0.13904136 -0.048626352 0.06844624 -0.22666731 0.06914823 -0.16903925 -0.16406114
-0.16028312 0.084973454 0.058722787 0.11236298 0.03889215 -0.08408804 -0.05005138 -0.108552024
-0.04885242 -0.015955469 -0.0848744 0.0621182 -0.14085762 -0.19845872 -0.10661437 0.19361201
-0.053589664 -0.120641544 -0.2498275 0.26648048 0.27213284 -0.15162255 0.409022 -0.1342199

fc5.bias f4 [25]
00000000: 700e dc3c d44d aa3e 99ac 81be 96a8 f03e
00000010: e3d9 6dbe fed4 d4bc 5418 163e 2dde a63e
00000020: 3f5d 863e a1c7 f9bd 4ca8 df3d 489b c3be
00000030: 1a8f 21be 290d a23e 5e4f b03d 3c0f c93d
00000040: abba 60be 5a3e 083f dc21 d03d 3d54 8e3d
00000050: ca1c 7b3e e862 18be 005a 32be 96ee 3d3d
00000060: 423e 69be
0.026862353 0.33262503 -0.25326994 0.4700362 -0.23227648 -0.025980469 0.14657718 0.32591382
0.26243016 -0.12196279 0.10920772 -0.38204408 -0.15777245 0.31650665 0.08608888 0.09817359
-0.21946208 0.5322014 0.10162708 0.06949661 0.24522701 -0.1488148 -0.17417145 0.04637011
-0.22777656

fc6.weight f4 [1, 25]
00000000: 7f87 3f3e 9a35 3bbf 3981 b93e 3e97 883f
00000010: 8556 00bf 1a73 80bf af20 9fbe cb84 793e
00000020: 3bf7 9f3e 1585 bc3c a641 81be c0c5 15bf
00000030: 5fe5 04bf b6f4 a23e 2f04 2e3e d45a 4cbf
00000040: f56f ae3d 3d91 923f cdb3 c4be 6d48 523e
00000050: 68d7 8f3e 12dd e0bc 7b12 be3e edc2 a5be
00000060: f97a 02be
0.18704031 -0.73128664 0.36231402 1.0671155 -0.5013202 -1.0035126 -0.31079623 0.24367063
0.3124331 0.023012677 -0.25245398 -0.5850487 -0.5191249 0.31827325 0.16993783 -0.7982609
0.08517448 1.1450573 -0.38418427 0.2053544 0.2809403 -0.027449165 0.37123474 -0.3237528
-0.12742223
