Linear Experiments/params/MLP/sinusoidal/final_params.pth (torch, 3964 bytes, 7 tensors)

fc1.weight f4 [10, 1]
0	0xbf1b700a	-0.60717833
1	0xbee22074	-0.44165385
2	0x3f837bec	1.0272193
3	0x3f84a8dc	1.0364032
4	0x3c624400	0.013810158
5	0x3d4cad20	0.049969792
6	0xbf141598	-0.5784545
7	0xbf3b8fb5	-0.73266155
8	0x3f188289	0.5957418
9	0xbe03bac7	-0.12864219

fc1.bias f4 [10]
0	0x3db5096b	0.08839687
1	0xbf4c158c	-0.7972038
2	0x3f51ebda	0.82000506
3	0xbdf86f12	-0.1213056
4	0xbf5d17a8	-0.8636422
5	0xbeaf4cec	-0.34238374
6	0x3ef30f99	0.47472838
7	0x3e88a819	0.26690748
8	0x3f099d69	0.53755814
9	0x3f023463	0.50861186

fc2.weight f4 [10, 10]
0	0xbb57a98f	-0.0032907461
1	0x3e4cefb0	0.20013309
2	0x3e5d7291	0.21625735
3	0xbe8acd80	-0.2710991
4	0xbd863b16	-0.065542385
5	0x3e9bff08	0.3046801
6	0xbe9a4e68	-0.30137944
7	0xbcc543ee	-0.024080243
8	0xbd21035c	-0.039309844
9	0x3eb1af16	0.34703892
10	0xbe9786e0	-0.2959509
11	0x3ca56ddb	0.020193985
12	0x3ec2cec9	0.3804839
13	0xbc2d876c	-0.010591369
14	0xbe78efb6	-0.24310192
15	0x3e3ed2ef	0.18635152
16	0x3e635ec4	0.22204119
17	0x3e10265a	0.1407713
18	0x3d2dcf6a	0.042434134
19	0xbee53b14	-0.44771636
20	0xbe5e9b96	-0.21739039
21	0x3dc6b08b	0.09701642
22	0xbb854bb2	-0.0040678615
23	0x3eae1ab6	0.34004754
24	0x3d52370c	0.051322028
25	0x3e8bd275	0.27309003
26	0x3df1f05d	0.11813424
27	0x3e272aea	0.16324964
28	0x3e8c3ba0	0.2738924
29	0xbe00bb21	-0.12571384
30	0x3e88a173	0.26685676
31	0xbdd5c7cd	-0.104384996
32	0xbe624a8e	-0.22098753
33	0xbe424ada	-0.18973866
34	0x3d33f123	0.043931138
35	0xbe028987	-0.12747775
36	0x3d83472f	0.064100616
37	0xbdd36414	-0.10321823
38	0x3e9bc699	0.30424955
39	0x3c9c193a	0.019054998
40	0xbdaa412c	-0.08313212
41	0x3e8dc427	0.27688715
42	0x3d34b172	0.044114538
43	0xbea441b5	-0.3208138
44	0x3e578a60	0.2104888
45	0xbe083df7	-0.13304888
46	0xbea5f368	-0.32412267
47	0x3e78aa7c	0.24283785
48	0x3e2dfbae	0.1699054
49	0xbd64397f	-0.055718895
50	0xbdda5b5d	-0.106619574
51	0xbcc6c4af	-0.024263708
52	0xbdbf379f	-0.09336781
53	0xbe605b83	-0.21909909
54	0x3d658ec8	0.05604437
55	0x3e799ee4	0.24377018
56	0xbd62d56b	-0.055379312
57	0xbded4614	-0.11585632
58	0x3d2800fe	0.04101657
59	0x3e415df5	0.18883498
60	0x3e869345	0.26284233
61	0x3d952dc3	0.07284119
62	0x3e174458	0.14772165
63	0xbe3ec3d8	-0.18629396
64	0xbe1ef102	-0.15521625
65	0xbd7880b0	-0.0606696
66	0x3cf4bd7f	0.029875515
67	0xbe8a79a8	-0.2704594
68	0xbcb02dab	-0.021506151
69	0xbdab5692	-0.08366121
70	0xbdf0479e	-0.1173241
71	0x3e2224f7	0.15834413
72	0xbc42a661	-0.011880488
73	0x3cdca4d7	0.02693407
74	0x3d0385ae	0.03210991
75	0x3b5e89b2	0.0033956585
76	0x3e45e686	0.19326219
77	0xbaae5aeb	-0.0013302242
78	0x3c39eaf7	0.011347524
79	0x3d25c425	0.04047026
80	0xbd217b8c	-0.039424464
81	0x3d0fe7e7	0.03513327
82	0xbe859c0a	-0.2609561
83	0x3e349f59	0.17638911
84	0xbe35b411	-0.17744471
85	0xbe0baaf4	-0.13639432
86	0xbe9d812e	-0.3076262
87	0xbe53795d	-0.20651765
88	0xbda67c5e	-0.0812919
89	0xbe63071b	-0.2217068
90	0x3e275680	0.16341591
91	0x3c4f62d9	0.012657844
92	0x3e6775be	0.22603509
93	0xbe8367e9	-0.25665215
94	0xbcc98681	-0.02460027
95	0xbe54fe85	-0.20800216
96	0xbe133765	-0.143766
97	0x3ddc44a3	0.10755279
98	0xbdb06d1d	-0.08614562
99	0x3e92b8f5	0.28656736

fc2.bias f4 [10]
0	0x3e0330bd	0.12811561
1	0xbed31e6d	-0.4123415
2	0x3e40bf08	0.18822873
3	0xbe4be4cd	-0.199115
4	0x3f10ec0f	0.56610197
5	0x3b1b9e60	0.0023745522
6	0xbe793198	-0.24335325
7	0xbe2e222c	-0.17005223
8	0xbe402a93	-0.18766241
9	0x3e2be85d	0.16787858

fc3.weight f4 [10, 10]
0	0x3cd67137	0.026177032
1	0x3e95c3af	0.29250857
2	0x3e9116dd	0.28337756
3	0x3e79e6c1	0.24404432
4	0x3e8f9a3a	0.28047353
5	0x3e667735	0.22506411
6	0xbe5d960b	-0.21639268
7	0xbe176700	-0.14785385
8	0xbd6966e1	-0.05698288
9	0x3e9476f7	0.28997013
10	0xbd0b450f	-0.034001406
11	0xbd04f39f	-0.032458898
12	0x3d08ee04	0.033430114
13	0x3ddfd2da	0.109288886
14	0xbe81d588	-0.25358224
15	0x3e4f6924	0.20254952
16	0x3daf366b	0.08555301
17	0xbdc2be3c	-0.095089406
18	0x3dad9329	0.08475334
19	0xbdfb7d56	-0.12279765
20	0xbe3ee8ec	-0.1864354
21	0x3db5ce0a	0.088771895
22	0xbe1463c8	-0.14491189
23	0x3d26600c	0.04061894
24	0x3ddf4132	0.10901107
25	0xbe2ecb44	-0.17069727
26	0xbd740a64	-0.05958022
27	0xbdcba211	-0.09943021
28	0xbd8946d9	-0.06702966
29	0x3e5a70ea	0.21332136
30	0x3e5c06e8	0.2148701
31	0xbe657f95	-0.2241195
32	0x3d8971a3	0.067111276
33	0x3e93b0d5	0.2884585
34	0xbdb079d8	-0.0861699
35	0x3e25c1bc	0.16187185
36	0x3e9841d8	0.29737735
37	0xbd2cc5de	-0.04218089
38	0x3d7ffcf2	0.062497087
39	0xbdba59a7	-0.09099131
40	0xbee94e69	-0.45567635
41	0x3f01b0f9	0.50660664
42	0x3e7dcc9e	0.24785087
43	0x3dd7dd65	0.105402745
44	0xbf0d9ff6	-0.55322206
45	0xbe6d6dcb	-0.23186414
46	0xbd812d0b	-0.063074194
47	0x3e24cbf5	0.16093428
48	0x3d93980a	0.072067335
49	0xbe9d9cc5	-0.30783668
50	0xbd0bbbce	-0.03411465
51	0xbe0fd680	-0.14046669
52	0x3d7dc681	0.061956886
53	0x3c468a2f	0.0121179065
54	0xbe05e172	-0.13074282
55	0x3deddbbb	0.11614176
56	0x3c9c5ee1	0.01908821
57	0xbe2a8edd	-0.1665606
58	0x3db82ae9	0.089925595
59	0xbdf5a319	-0.11993999
60	0xbe484d39	-0.19560708
61	0xbe3fbb36	-0.18723759
62	0x3d988a10	0.07448208
63	0x3dd0f155	0.102022804
64	0x3e8ac996	0.27106923
65	0xbe4c41d0	-0.1994698
66	0xbe9bbe51	-0.30418637
67	0xbd1dc789	-0.03852037
68	0xbe93f2fd	-0.28896323
69	0x3d865be9	0.06560499
70	0x3e34f224	0.17670494
71	0xbdd0e25d	-0.10199425
72	0x3b21a754	0.0024666386
73	0x3b21bbb3	0.0024678528
74	0xbe8361a2	-0.25660425
75	0x3e891efb	0.2678145
76	0xbe063dc7	-0.13109504
77	0xbe1c9c3f	-0.15293978
78	0xb926bb29	-0.00015900716
79	0xbd57902d	-0.05262773
80	0xbe9d016b	-0.30665144
81	0xbe9a87b8	-0.3018167
82	0x3aa7e09e	0.001280803
83	0x3e847331	0.25869134
84	0xbe4a3909	-0.1974832
85	0xbe94ee2f	-0.2908797
86	0x3e2b9c59	0.1675886
87	0x3d8caff8	0.06869501
88	0xbd89b318	-0.067236125
89	0xbe753269	-0.23945011
90	0xbdcb22fe	-0.099187836
91	0xbebeed87	-0.37290594
92	0x3e359d6b	0.17735831
93	0xbe0d8d8f	-0.13823532
94	0x3dd1b811	0.10240186
95	0x3b93d114	0.004511008
96	0xbdcee627	-0.10102492
97	0x3e312f7e	0.17303273
98	0x3e9ebb38	0.31002212
99	0x3ea13789	0.31487682

fc3.bias f4 [10]
0	0x3da466ae	0.08027397
1	0x3dd7cf29	0.105375595
2	0x3e502aba	0.20328799
3	0x3e48ff92	0.19628742
4	0xbe70491f	-0.23465393
5	0xbe19626d	-0.14978953
6	0xbe5d6550	-0.21620679
7	0x3cae600b	0.021286031
8	0xbd9178c3	-0.071031116
9	0x3e2c8397	0.16847073

output.weight f4 [1, 10]
0	0x3e063fbc	0.1311025
1	0xbdcb3fc6	-0.09924273
2	0x3e88dac6	0.2672941
3	0x3e2bbbd8	0.16770875
4	0xbf61481b	-0.8800065
5	0xbe9208a5	-0.2852222
6	0x3e85aea9	0.26109818
7	0xbd12f240	-0.03587556
8	0xbe91daaf	-0.28487155
9	0x3eab337a	0.3343771
