Linear Experiments/params/MLP/sinusoidal/initial_params.pth (torch, 3988 bytes, 7 tensors)

fc1.weight f4 [10, 1]
0	0xbf1b56ba	-0.6067921
1	0xbee22074	-0.44165385
2	0x3f7bec54	0.98407483
3	0x3f7b4a50	0.98160267
4	0x3c624400	0.013810158
5	0x3d4cad20	0.049969792
6	0xbf13939e	-0.5764712
7	0xbf3ada02	-0.72988904
8	0x3f0fd7a8	0.5618844
9	0xbd60ca20	-0.05488026

fc1.bias f4 [10]
0	0x3dc10480	0.094246864
1	0xbf4c158c	-0.7972038
2	0x3f560dfc	0.8361509
3	0x3ce5ec80	0.028066874
4	0xbf5d17a8	-0.8636422
5	0xbeaf4cec	-0.34238374
6	0x3eef15ec	0.46696413
7	0x3e923478	0.28555655
8	0x3f11ae50	0.56906605
9	0x3e9c4378	0.30520225

fc2.weight f4 [10, 10]
0	0xbb829bb6	-0.0039858473
1	0x3e4cefb0	0.20013309
2	0x3e2ca3a0	0.16859293
3	0xbe415189	-0.1887876
4	0xbd863b16	-0.065542385
5	0x3e9bff08	0.3046801
6	0xbe9fdce7	-0.31223223
7	0xbce60a26	-0.028081011
8	0xbd9ef393	-0.07761302
9	0x3e8d9cbe	0.27658647
10	0xbe97c0c9	-0.2963927
11	0x3ca56ddb	0.020193985
12	0x3e9cba8f	0.30611083
13	0xbe84f4dd	-0.25968066
14	0xbe78efb6	-0.24310192
15	0x3e3ed2ef	0.18635152
16	0x3e5cc0d9	0.2155794
17	0x3e0d55dd	0.13802285
18	0x3c87eb69	0.016591744
19	0xbe9d1dc9	-0.30686787
20	0xbe5df61b	-0.21675913
21	0x3dc6b08b	0.09701642
22	0x3c8a7843	0.016903048
23	0x3e96b842	0.29437453
24	0x3d52370c	0.051322028
25	0x3e8bd275	0.27309003
26	0x3e039634	0.12850267
27	0x3e2aec3a	0.16691676
28	0x3e95b6f0	0.29241133
29	0xbd9169f0	-0.07100284
30	0x3e88a173	0.26685676
31	0xbdd5c7cd	-0.104384996
32	0xbe624a8e	-0.22098753
33	0xbe424ada	-0.18973866
34	0x3d33f123	0.043931138
35	0xbe028987	-0.12747775
36	0x3d83472f	0.064100616
37	0xbdd36414	-0.10321823
38	0x3e9bc699	0.30424955
39	0x3c9c193a	0.019054998
40	0xbda84774	-0.082167536
41	0x3e8dc427	0.27688715
42	0xbd327da6	-0.04357686
43	0xbe472af9	-0.19449987
44	0x3e578a60	0.2104888
45	0xbe083df7	-0.13304888
46	0xbe9fa84d	-0.3118309
47	0x3e7e20d4	0.2481721
48	0x3dcdf702	0.100568786
49	0xbe2aaa67	-0.16666566
50	0xbdda5b5d	-0.106619574
51	0xbcc6c4af	-0.024263708
52	0xbdbf379f	-0.09336781
53	0xbe605b83	-0.21909909
54	0x3d658ec8	0.05604437
55	0x3e799ee4	0.24377018
56	0xbd62d56b	-0.055379312
57	0xbded4614	-0.11585632
58	0x3d2800fe	0.04101657
59	0x3e415df5	0.18883498
60	0x3e869345	0.26284233
61	0x3d952dc3	0.07284119
62	0x3e174458	0.14772165
63	0xbe3ec3d8	-0.18629396
64	0xbe1ef102	-0.15521625
65	0xbd7880b0	-0.0606696
66	0x3cf4bd7f	0.029875515
67	0xbe8a79a8	-0.2704594
68	0xbcb02dab	-0.021506151
69	0xbdab5692	-0.08366121
70	0xbdf0479e	-0.1173241
71	0x3e2224f7	0.15834413
72	0xbc42a661	-0.011880488
73	0x3cdca4d7	0.02693407
74	0x3d0385ae	0.03210991
75	0x3b5e89b2	0.0033956585
76	0x3e45e686	0.19326219
77	0xbaae5aeb	-0.0013302242
78	0x3c39eaf7	0.011347524
79	0x3d25c425	0.04047026
80	0xbd217b8c	-0.039424464
81	0x3d0fe7e7	0.03513327
82	0xbe859c0a	-0.2609561
83	0x3e349f59	0.17638911
84	0xbe35b411	-0.17744471
85	0xbe0baaf4	-0.13639432
86	0xbe9d812e	-0.3076262
87	0xbe53795d	-0.20651765
88	0xbda67c5e	-0.0812919
89	0xbe63071b	-0.2217068
90	0x3e29b7ab	0.1657397
91	0x3c4f62d9	0.012657844
92	0x3e7a7210	0.24457574
93	0xbd97b1d1	-0.07406963
94	0xbcc98681	-0.02460027
95	0xbe54fe85	-0.20800216
96	0xbde4ea9e	-0.11177562
97	0x3df6f9d4	0.1205937
98	0xbdba3b6d	-0.09093366
99	0x3e4b25e1	0.19838668

fc2.bias f4 [10]
0	0xbcc5f5b6	-0.024165016
1	0xbe492c73	-0.19645862
2	0x3e8b1b3b	0.27169213
3	0xbe4be4cd	-0.199115
4	0x3e9fe819	0.31231764
5	0x3b1b9e60	0.0023745522
6	0xbe793198	-0.24335325
7	0xbe2e222c	-0.17005223
8	0xbe402a93	-0.18766241
9	0xbcefb8fa	-0.029263008

fc3.weight f4 [10, 10]
0	0x3c7745d7	0.015092335
1	0x3e9c95d6	0.30583066
2	0x3ea0a29b	0.31374058
3	0x3e79e6c1	0.24404432
4	0x3e86993f	0.26288792
5	0x3e667735	0.22506411
6	0xbe5d960b	-0.21639268
7	0xbe176700	-0.14785385
8	0xbd6966e1	-0.05698288
9	0x3e9227f5	0.2854611
10	0xbcc9ed33	-0.024649238
11	0xbd861927	-0.06547766
12	0xbbfafad7	-0.007659297
13	0x3ddfd2da	0.109288886
14	0xbe736d9d	-0.23772283
15	0x3e4f6924	0.20254952
16	0x3daf366b	0.08555301
17	0xbdc2be3c	-0.095089406
18	0x3dad9329	0.08475334
19	0xbde728f2	-0.112871066
20	0xbe798720	-0.24367952
21	0x3e3ddf1a	0.18542138
22	0xbdaed676	-0.08536999
23	0x3d26600c	0.04061894
24	0x3c498931	0.012300775
25	0xbe2ecb44	-0.17069727
26	0xbd740a64	-0.05958022
27	0xbdcba211	-0.09943021
28	0xbd8946d9	-0.06702966
29	0x3e281ff1	0.16418435
30	0x3e43584c	0.19076651
31	0xbe3e419e	-0.18579718
32	0x3dba0ace	0.09084092
33	0x3e93b0d5	0.2884585
34	0xbdf72e2a	-0.12069352
35	0x3e25c1bc	0.16187185
36	0x3e9841d8	0.29737735
37	0xbd2cc5de	-0.04218089
38	0x3d7ffcf2	0.062497087
39	0xbddd1cbb	-0.107964955
40	0xbe8b641b	-0.27224812
41	0x3e93d9fc	0.28877246
42	0x3dd68219	0.10474033
43	0x3dd7dd65	0.105402745
44	0xbe671ecc	-0.22570342
45	0xbe6d6dcb	-0.23186414
46	0xbd812d0b	-0.063074194
47	0x3e24cbf5	0.16093428
48	0x3d93980a	0.072067335
49	0xbdf3c848	-0.11903435
50	0xbd0bbbce	-0.03411465
51	0xbe0fd680	-0.14046669
52	0x3d7dc681	0.061956886
53	0x3c468a2f	0.0121179065
54	0xbe05e172	-0.13074282
55	0x3deddbbb	0.11614176
56	0x3c9c5ee1	0.01908821
57	0xbe2a8edd	-0.1665606
58	0x3db82ae9	0.089925595
59	0xbdf5a319	-0.11993999
60	0xbe484d39	-0.19560708
61	0xbe3f97e2	-0.18710282
62	0x3d9ad3b1	0.07559908
63	0x3dd0f155	0.102022804
64	0x3e8ac996	0.27106923
65	0xbe4c41d0	-0.1994698
66	0xbe9bbe51	-0.30418637
67	0xbd1dc789	-0.03852037
68	0xbe93f2fd	-0.28896323
69	0x3d86eed3	0.06588521
70	0x3e34f22b	0.17670505
71	0xbdd0e228	-0.10199386
72	0x3b22032b	0.0024721127
73	0x3b21bbb3	0.0024678528
74	0xbe8361a2	-0.25660425
75	0x3e891efb	0.2678145
76	0xbe063dc7	-0.13109504
77	0xbe1c9c3f	-0.15293978
78	0xb926bb29	-0.00015900716
79	0xbd578e7f	-0.05262613
80	0xbe9d016b	-0.30665144
81	0xbe9a87b8	-0.3018167
82	0x3aa7e09e	0.001280803
83	0x3e847331	0.25869134
84	0xbe4a3909	-0.1974832
85	0xbe94ee2f	-0.2908797
86	0x3e2b9c59	0.1675886
87	0x3d8caff8	0.06869501
88	0xbd89b318	-0.067236125
89	0xbe753269	-0.23945011
90	0xbe21a36e	-0.15785
91	0xbe81ec4b	-0.2537559
92	0x3e9747d5	0.2954699
93	0xbe0d8d8f	-0.13823532
94	0x3c11ed91	0.008906738
95	0x3b93d114	0.004511008
96	0xbdcee627	-0.10102492
97	0x3e312f7e	0.17303273
98	0x3e9ebb38	0.31002212
99	0x3e8c1d16	0.2736594

fc3.bias f4 [10]
0	0x3d8ea6d5	0.069654144
1	0x3dd1e35e	0.10248445
2	0x3d12d2ad	0.035845447
3	0x3e18db81	0.14927484
4	0x3e11e5cd	0.14247818
5	0xbe19626d	-0.14978953
6	0xbe5d0a94	-0.21586066
7	0x3cae6977	0.021290524
8	0xbd9178c3	-0.071031116
9	0x3d1cce08	0.038282424

output.weight f4 [1, 10]
0	0x3e2d6559	0.16933192
1	0xbcdf50ec	-0.027260266
2	0x3e4963b8	0.19666946
3	0x3ccc6d3f	0.024954436
4	0xbe5dab69	-0.21647419
5	0xbe9208a5	-0.2852222
6	0x3e85b028	0.2611096
7	0xbd12f24c	-0.035875604
8	0xbe91daaf	-0.28487155
9	0x3e5cb6e8	0.21554148
